LP/RGCN/checkpoint/rgcn_checkpoint_youtube_2.pt (torch, 575313 bytes, 9 tensors)

w_relation f4 [6, 64]
000000 2f c4 a3 bd ac db ee bd 4b 7e ef bc 45 af a1 bd
       -0.079964034 -0.11662993 -0.029235026 -0.07894758
000010 71 23 e0 3d ee 02 47 be b6 22 ab bc cc c1 8b 3e
       0.1094426 -0.19434711 -0.020890575 0.27296293
000020 0e 21 1a 3e 56 57 80 be 67 af 27 3d 60 2f 16 be
       0.15051672 -0.25066632 0.04093876 -0.1466651
000030 9b 6b 8d be 37 a9 80 3e 71 80 35 bd 56 f8 88 ba
       -0.2762116 0.251291 -0.044311944 -0.0010449986
000040 0b c8 a6 ba 42 71 18 3b c7 da 74 3c 13 cd 3d be
       -0.0012724412 0.0023260866 0.014944739 -0.18535261
000050 93 68 fc 3d 53 62 8a bd 45 cd d2 bd 73 a2 2e be
       0.123246334 -0.06757035 -0.10293058 -0.17054157
000060 5c df 51 3e 03 f0 0e 3d c2 f4 81 3e 34 72 45 3e
       0.20495361 0.03489686 0.25382048 0.19281846
000070 96 0a fa 3d 18 b3 09 be 65 40 df bb 3e 7a 24 be
       0.1220905 -0.13447225 -0.0068130963 -0.16062257
000080 2e d0 2c 3e f8 9c 8e be 5b bf 41 be ed 7d 63 3d
       0.16876289 -0.27854133 -0.18920653 0.055540014
000090 76 2f 54 be 78 82 d8 bd 32 9e a1 3d 42 dd f2 bd
       -0.2072123 -0.1057176 0.078915015 -0.11858608
0000a0 93 a1 1e 3c 67 79 d1 3c 67 62 8e 3a 64 45 74 3d
       0.009682077 0.025570584 0.0010863066 0.05963649
0000b0 70 dc f3 ba 62 e8 3d be 1e 6c f8 bb 0d e5 0d be
       -0.0018605124 -0.18545678 -0.007581248 -0.13856907
0000c0 82 03 01 3e f9 68 6d 3e b8 f4 43 be 53 b0 a0 bd
       0.12598994 0.23184575 -0.19136322 -0.07846131
0000d0 a4 7b 04 3b c2 04 66 be fc c2 b0 be 8e bb 0a bb
       0.0020215297 -0.22462752 -0.3452376 -0.002116892
0000e0 38 06 1e 3e 8b 66 29 3e ca 35 46 be dc 8f 3a be
       0.1543206 0.16543023 -0.19356456 -0.1821894
0000f0 63 3d f7 bd bf 33 71 3e ca a4 71 bd 5d 01 07 bd
       -0.120722555 0.23554896 -0.058995046 -0.032960285
000100 f6 50 4f be 48 af 2f bc 82 51 75 3e d2 b1 6e 3e
       -0.20245728 -0.010722943 0.23956874 0.2331002
000110 71 b1 30 3e e8 7b 57 be 50 ca 98 be 9c 58 1a 3e
       0.17255189 -0.2104336 -0.29841852 0.15072864
000120 8b 10 4f 3e 8a 5f 17 3b 6b 4b 16 3e 1b 2a 93 3e
       0.20221154 0.0023097717 0.14677207 0.2874306
000130 42 5f b2 be 52 d7 96 be d8 a6 38 3c 32 78 87 3c
       -0.348383 -0.2946115 0.011270247 0.016536806
000140 c6 af 9a 3d bf 0f 96 3e 00 d2 bd 3b 6e d0 fc 3d
       0.075530574 0.29308888 0.005792856 0.12344442
000150 d6 17 d4 be 33 24 37 be 38 91 63 3d ef 61 8c bd
       -0.41424435 -0.17884903 0.055558413 -0.06854617
000160 a5 20 24 be 86 05 7a 3d 16 7c 0e 3d 1a 4d b8 be
       -0.16028078 0.061040424 0.034786306 -0.35996324
000170 70 da 33 bd 2c 58 85 be 82 9b ae 3d 37 82 8a bd
       -0.04390949 -0.26043832 0.085257545 -0.06763118
000180 75 0b 8f be 30 5b 91 be 39 a2 c5 be 28 e0 f9 be
       -0.2793843 -0.28389883 -0.3860033 -0.4880383
000190 b9 79 18 3e ff 3b cc bd 37 34 ec 3d 41 a8 7b bd
       0.14890184 -0.09972381 0.11533397 -0.061439756
0001a0 58 1f d0 3d 54 7d 21 3e 07 a2 cf 3d 18 6e 36 3e
       0.10162228 0.15770465 0.10138326 0.17815435
0001b0 64 bf 01 bc 6f e1 a2 be 12 a2 09 be 6a 8b ea be
       -0.007919166 -0.31812617 -0.13440731 -0.4580949
0001c0 96 9d e2 be 05 d8 71 3d 23 54 57 bd 4e d5 fd bd
       -0.44260854 0.059043903 -0.052570473 -0.123942
0001d0 c2 7f 09 3e 6f d1 87 3b 66 02 ba bd 6e 1f 4a bc
       0.13427642 0.0041448395 -0.09082489 -0.012336595
0001e0 05 d0 3a 3e 46 18 d8 bd 34 9f d5 3d 50 0b e6 be
       0.18243416 -0.10551505 0.10430756 -0.44930506
0001f0 6c c1 22 be 6c e6 33 be f7 b0 83 3d 5f 0e aa be
       -0.15894097 -0.17568368 0.06430238 -0.3321409
000200 57 47 da be f1 f6 02 3e 9a cf 00 3d a7 4e f0 bd
       -0.42632553 0.12789513 0.031447984 -0.11733752
000210 d3 d0 8f bd 64 b6 16 be 66 4b 8f 3e 38 cc 0d bd
       -0.07022252 -0.14718014 0.27987212 -0.034618586
000220 18 ad 38 3e fb ca 86 3d 2e 51 6b be b4 3b 4d 3e
       0.1803478 0.06581684 -0.22980186 0.20042306
000230 7f d5 66 be 54 14 1c be 9d 80 f5 3d 8f 44 47 3c
       -0.2254238 -0.1524213 0.11987422 0.012162342
000240 84 62 c8 bc c5 39 28 3e 84 5d 33 be 6e 55 28 3e
       -0.024461038 0.16428287 -0.17516142 0.16438839
000250 44 18 29 be d4 96 15 be d9 c3 70 3d 72 f5 93 be
       -0.16513163 -0.14608318 0.058780525 -0.28898197
000260 a5 d4 e1 bc d8 22 e4 b9 cb 75 ea be f4 4d ff 3c
       -0.027567217 -0.0004351351 -0.45792994 0.0311651
000270 49 74 80 3e 54 1d 0e bd 9f c8 47 be 6f 96 b1 be
       0.2508872 -0.03469594 -0.19510125 -0.34685084
000280 b4 66 af be 08 5d eb be da af 47 3d 5a 56 d0 be
       -0.34258044 -0.45969415 0.04875169 -0.4069088
000290 23 b4 86 bc a6 5a 79 bd c5 98 7d 3e 9c 91 89 3e
       -0.016443318 -0.060877465 0.24765308 0.26868904
0002a0 2e ff 91 3e 9f 49 69 bd 7e 74 38 3e 34 9f 96 3e
       0.28515 -0.056954976 0.18013188 0.29418337
0002b0 b7 ad 52 3e 0a bd c2 be 8e 49 09 3e 75 aa c4 be
       0.2057408 -0.3803485 0.13406965 -0.38411298
0002c0 6f cb c5 3d 82 86 4b 3e 4f cd 23 3e bd 34 47 3e
       0.096579425 0.1987553 0.15996288 0.19453712
0002d0 14 50 58 3e c6 7b f0 be d6 e3 c6 be 99 64 05 3e
       0.21124297 -0.46969432 -0.388457 0.13026656
0002e0 d0 5a dd 3c c5 9b 65 3e d2 6e 8c be 0b 4a a0 be
       0.027020842 0.22422703 -0.274283 -0.3130649
0002f0 ae ff 73 be 7f ce 6d 3e 96 75 71 3c 4a 4a 57 be
       -0.23828003 0.23223303 0.014737507 -0.21024433
000300 06 ed a0 be af 3a c0 3b fd 7b 9f bb 5e f3 63 be
       -0.31430835 0.0058663706 -0.0048670755 -0.22260806
000310 2f 21 66 3e f4 69 c4 be c0 0b 5e 3e 35 2d 83 3e
       0.22473596 -0.38362086 0.2168417 0.25620428
000320 25 a3 84 be c0 51 33 be 73 34 56 bc f1 f9 37 3d
       -0.2590572 -0.17511654 -0.013074028 0.044916097
000330 e3 b7 6f be 31 a2 a1 be bd af 92 3d f8 08 18 bc
       -0.23409991 -0.31569055 0.07162426 -0.009279482
000340 c5 7a 94 bc 66 6c e7 bd e7 6a 00 3e ea 67 bd bc
       -0.018124947 -0.11299972 0.1254078 -0.02312084
000350 33 ab 4a 3d f5 cc 6f be 6e 4f 78 3e 25 2a 0e be
       0.049479675 -0.23418029 0.2424905 -0.13883264
000360 87 f3 00 3e a2 58 d8 3d f0 4b b1 be a6 3b c7 be
       0.12592898 0.1056378 -0.34628248 -0.38912696
000370 9c c0 0c 3b 1e cb dd be 92 45 24 3e 29 ba b8 bc
       0.0021477109 -0.4331903 0.16042164 -0.022549706
000380 c3 2c 31 3e 95 7f e3 be 52 25 71 3e 17 28 89 bc
       0.17302231 -0.44433275 0.23549393 -0.01674275
000390 8a 05 27 bc 94 36 95 be 53 5a 3d 3e 62 78 56 3d
       -0.010194192 -0.29143202 0.18491487 0.0523609
0003a0 d2 72 b8 3d 9a f5 db 3c 29 da bf 3d 19 a0 d1 3d
       0.09006275 0.02685051 0.093677826 0.10235614
0003b0 67 6e 6e bd 00 12 14 be 19 70 4f 3e 32 d4 8a be
       -0.058210757 -0.14459991 0.20257606 -0.27115017
0003c0 29 7b 0c 3e eb fa 67 3e db ba cb 3d b7 ed 09 be
       0.13718857 0.22654311 0.09947749 -0.13469587
0003d0 0b e8 6a be 5d 91 33 bd da 8b 96 be 7b df 8e be
       -0.2294008 -0.0438398 -0.29403573 -0.27904877
0003e0 72 a3 05 3e f2 ce 53 bd 99 00 57 be 30 b8 17 be
       0.1305063 -0.05171103 -0.20996322 -0.14816356
0003f0 9b 8d 65 be 25 1a 5e 3e 35 c0 52 3e e5 ce 14 3e
       -0.224173 0.21689661 0.20581134 0.14532049

rgcn.layers.0.h_bias f4 [64]
000000 ec 1f 2f 3d 28 70 67 3d 6a 92 16 3d 34 85 23 3d
       0.042755052 0.056503445 0.036760725 0.039921954
000010 15 df af bc 41 54 0a 3d 56 0c b1 3c ec 01 6f 3d
       -0.021468678 0.033771757 0.021612328 0.058351442
000020 be c4 8a 3c 6d 5d 2d 3c b5 76 96 3c cb fc 01 3d
       0.016939517 0.0105813565 0.01836715 0.031735223
000030 a6 0a cd 3c 16 eb 75 3b 83 03 14 ba 48 d1 0d 3d
       0.025029492 0.0037524155 -0.0005646275 0.034623414
000040 2f d1 fa 3c 1b e6 b9 3b 6e 26 20 bc b1 65 3f 3d
       0.030617325 0.0056731827 -0.009774787 0.04672784
000050 ab 9f f1 3c c6 3f 56 3d ca 37 be 3c d1 c0 06 bc
       0.029495081 0.052306913 0.023219962 -0.008224682
000060 28 2c 1a 3d 47 2f ae 3c a2 fe 90 bc 1c fc 87 3b
       0.037639767 0.021262778 -0.017699543 0.004149927
000070 15 76 85 bc 23 60 99 bb 5b 1b 0b bd 4d 02 74 3d
       -0.016291657 -0.00468065 -0.033961635 0.059572507
000080 12 a7 08 3d d6 7f 1b 3d 5d e7 6a b9 6f 68 86 bc
       0.033362456 0.03796371 -0.00022402169 -0.01640722
000090 a0 1e 23 3d f4 4d 00 3d 17 0a 5f 3d e6 41 ed 3c
       0.03982413 0.031324342 0.05445298 0.028962087
0000a0 b9 0a 89 bc 02 ee 18 3d 11 f7 e1 3c 75 bc ff 3c
       -0.016728746 0.037336357 0.02758363 0.031217793
0000b0 78 0e 62 3c a2 3e 64 3d a7 34 d0 3c 96 88 4e 3d
       0.013797395 0.055723794 0.025415732 0.050423227
0000c0 7a da 6f bc 00 af 98 bc 91 87 e9 bc 06 0c 1e b9
       -0.014639491 -0.018638134 -0.028507026 -0.00015072533
0000d0 c6 5a bb bb 3b 2d 14 3d 94 1e 7d 3d fd a7 a1 3c
       -0.005717608 0.036175948 0.06179674 0.019733423
0000e0 90 29 ff 3c 16 07 24 3d fa 13 d4 3c fb ca 45 b8
       0.031147748 0.04004582 0.025888432 -4.71575e-05
0000f0 e2 69 f1 3a e7 14 f8 bb 31 58 cf bb 9b ad 30 3d
       0.0018418396 -0.007570851 -0.006327652 0.043134313

rgcn.layers.0.loop_weight f4 [64, 64]
000000 d2 47 19 bd d5 38 5c bd 6e 60 82 3c 1b 80 40 be
       -0.03742201 -0.053765137 0.015915122 -0.18798868
000010 8d e3 07 be c5 17 9a be a9 37 37 3d e4 c1 1a be
       -0.13270397 -0.3009626 0.044730816 -0.15113026
000020 22 21 d3 bc 33 96 99 3c cf 1c 0e 3e 52 2a ed bd
       -0.025772635 0.018748378 0.13878177 -0.115803376
000030 de ab 64 be 77 7e 97 bd ea 64 12 bd 27 56 42 be
       -0.22331187 -0.07397168 -0.03574077 -0.18978177
000040 fe 4d e2 bd b4 28 09 3e f0 2e 31 bd a2 15 41 3c
       -0.11050032 0.13394433 -0.043257654 0.011784943
000050 3b 01 21 be d2 bf 62 bd 80 5d 50 be 72 7a 73 3c
       -0.15723126 -0.055358715 -0.20348167 0.014860736
000060 f2 a7 88 3d b8 c7 58 be 33 96 97 bd ea 6e 1e bd
       0.06672658 -0.21169937 -0.07401695 -0.038679995
000070 41 cc f1 b8 8a 73 24 b1 d5 09 a9 bd 71 d3 4c 3d
       -0.00011529821 -2.3930817e-09 -0.082538284 0.050006334
000080 45 0f c4 bd 22 c0 ae bd c0 3e 9a 3d 2d d1 96 bd
       -0.09573225 -0.0853274 0.075315 -0.07364116
000090 1e 15 9a 3d ad ba 81 be b3 a8 14 3d 85 8b ef bb
       0.07523559 -0.25337735 0.036293697 -0.007310333
0000a0 ff ed bb 3d 26 ea b0 bd 48 65 43 be 58 0b 3c 3c
       0.091762535 -0.0863841 -0.19081604 0.011477314
0000b0 9d 26 7f bd d6 0e 28 3d a8 61 04 be 7b 46 5a 3d
       -0.062292684 0.041029774 -0.12927878 0.05328987
0000c0 24 e6 22 35 9d a9 ea bd f4 87 63 bd 8b cc 11 38
       6.06846e-07 -0.114581324 -0.055549577 3.476119e-05
0000d0 dc e1 2c bb 94 cd a0 bc f4 25 9c be ee 48 5a 3d
       -0.002637974 -0.019629277 -0.30497706 0.053292207
0000e0 9c 04 39 be 41 9e 75 be 50 7d cc 3c cd 99 a7 bd
       -0.18068165 -0.2398615 0.024962097 -0.08183632
0000f0 6c 28 5a be 5b 9f c6 bc 7a 00 03 3e 86 0e 30 3e
       -0.21304482 -0.024245908 0.1279315 0.1719304
000100 e7 41 ad bd fe 94 9c bd b7 18 aa 3d 92 a1 4b 3e
       -0.084598355 -0.076456055 0.08305495 0.19885853
000110 21 ea 27 bc 9a 8f ed 3d 08 58 18 be 65 10 30 3e
       -0.010248692 0.115996554 -0.14877331 0.17193754
000120 da fb 05 be 6b 02 11 3d ef 21 e0 bb 36 e8 59 3d
       -0.13084355 0.035402697 -0.0068399827 0.05319997
000130 3e d8 c7 3d 4a 04 14 be 97 85 60 bc 5a 79 09 3e
       0.09758042 -0.14454761 -0.013703725 0.13425198
000140 26 cc 1c 3e 20 ea f9 3c 4b 5f 7d 39 e2 c3 0b be
       0.15312251 0.030507147 0.0002416346 -0.13648942
000150 81 06 55 bd 6c 9e 14 be e8 07 ab 3c 61 08 5b bd
       -0.052008156 -0.14513558 0.020877793 -0.053474788
000160 6b 6c 94 3d ed 68 b4 3c f4 6d 8d 3c 9d 27 3d 3e
       0.072472416 0.022022689 0.017264344 0.18472143
000170 11 4d d2 3a c7 be b6 bc 71 b0 aa bd 16 7f d2 3d
       0.0016044696 -0.022307767 -0.08334435 0.10278146
000180 77 59 26 bd e8 d9 4e 3e 9a 02 fb bc 50 81 03 3b
       -0.040612664 0.20200312 -0.030640889 0.002006609
000190 ff da d0 3d 24 57 3e bd a0 9e 4d 3d af 2a f3 3d
       0.1019802 -0.046469823 0.050200105 0.118733756
0001a0 69 ff d8 bc d1 a5 b1 bd 1c 66 03 3d 19 44 1d bd
       -0.026488977 -0.08674205 0.0320798 -0.03839502
0001b0 36 70 f3 bd 11 62 c6 3d 6b a8 ff 3c 60 9d 0f bd
       -0.11886637 0.096866734 0.031208238 -0.035062194
0001c0 20 3f 80 3d 08 95 2e be 8a af 4b 3d 1d 1b 02 bd
       0.0626204 -0.17049038 0.049727954 -0.03176414
0001d0 c1 3f 1c 3c bc 0d 22 3d 6d 26 0b 3e d3 0a 47 3d
       0.0095366845 0.03956388 0.13588877 0.048594307
0001e0 e2 0a 58 3e 8c 97 a0 3c cb 9a 1f 3c 95 1d 81 3b
       0.21097901 0.019603513 0.009741495 0.003940294
0001f0 4f 56 a8 3c fd 4a e4 36 ec 27 b6 3b b0 19 49 3e
       0.020548968 6.8036593e-06 0.0055589583 0.19638705
000200 0f c2 35 3e 2e f1 9d bd 40 a6 d4 bd d1 eb 98 3d
       0.17749809 -0.07712017 -0.10383272 0.074668534
000210 83 3b b7 bd 47 b8 81 3e 52 62 bd bc f7 b8 fa 3d
       -0.08946898 0.25335905 -0.023118172 0.122423105
000220 f9 c3 a1 bd 89 ee 0e 3e 1c 2d 9a bd b3 85 25 3e
       -0.07898707 0.13958181 -0.07528135 0.16164283
000230 6a 96 57 3e 00 0b 14 be 05 e0 b6 3a 32 a2 68 3d
       0.21053472 -0.14457321 0.0013952261 0.056795307
000240 cc 65 da bc 70 b3 d4 3d 07 9d 80 bd 79 60 07 3e
       -0.026659869 0.103857875 -0.062799506 0.13220395
000250 8e 29 69 3e ef 59 79 3d ad 35 f6 3d 3a e1 13 3b
       0.22769758 0.060876783 0.120219566 0.0022564665
000260 69 0d 72 be f8 62 c9 3d 4d 3d b2 bc fa fc fc 3d
       -0.23637928 0.0983333 -0.021757746 0.12352939
000270 99 88 92 bd 55 7b 2f 3e 17 71 46 3d e3 1d ad bd
       -0.0715496 0.17136891 0.048447695 -0.08452966
000280 cd 8d 6d 3d 4f b2 55 bd ab 72 52 bd 4b cb 9d 3d
       0.05799656 -0.052172 -0.051378887 0.07704791
000290 aa 64 f0 3b 98 0c 90 3d e8 75 92 bd 64 56 dc bd
       0.007336219 0.07033652 -0.07151395 -0.10758665
0002a0 a7 69 88 bd ec 41 81 3e fa 7b 83 3e c6 17 51 bd
       -0.066607766 0.25245607 0.25680524 -0.051048063
0002b0 64 79 72 bc 23 53 3d 3c 0d 59 93 bd e4 04 6d bd
       -0.01479945 0.011555466 -0.071947195 -0.057865992
0002c0 fc cf 4f 3b 88 70 4d bd df a3 08 be 54 77 b2 3d
       0.0031709662 -0.050156146 -0.13343762 0.08714166
0002d0 75 13 2f be 8f de 50 3e 9b d9 99 3e e0 9e 1c be
       -0.17097266 0.203974 0.30048832 -0.15294981
0002e0 50 9b 20 3d 57 38 f9 3d 9f c7 21 3e cb f1 31 bd
       0.039210618 0.12168949 0.15798806 -0.043443482
0002f0 cb 3c ad bd b4 dd 1e b7 fe 62 b1 bd 0e 4a d3 3d
       -0.08458861 -9.469153e-06 -0.086614594 0.10316859
000300 39 3c e3 bd be c5 f2 bd ea 83 42 be 1c 70 3f 3d
       -0.11095471 -0.118541226 -0.18995634 0.046737775
000310 49 f6 2e 3d 4b 0a 0b be 24 94 82 bc 3b e3 1a be
       0.042715345 -0.13578145 -0.01593978 -0.15125744
000320 e8 63 c5 3c 15 76 29 3e 73 3e f5 bb 2f d8 8c 3d
       0.02409549 0.16548951 -0.007484251 0.06877171
000330 e1 42 39 3e 8b e4 5f 3c 7a 27 ce 3d e8 42 49 3e
       0.18091919 0.013665329 0.10066123 0.19654429
000340 bd 6a 27 3d dc c4 88 3c fe b5 da ba f3 7e cf bd
       0.040873278 0.016695432 -0.0016686318 -0.101316355
000350 cf 1f 0a 3e 53 eb 21 3d 68 be 21 be b4 56 2c be
       0.13488697 0.039531063 -0.1579529 -0.1682995
000360 f0 24 3f 3e de dd 97 3d fe c2 90 3b c2 81 d7 bd
       0.18666434 0.07415365 0.004417776 -0.10522796
000370 06 b3 37 3d 29 44 20 be 49 7f bb 3d 59 c3 f7 bb
       0.044848464 -0.15651001 0.09155137 -0.007561129
000380 05 bf 48 bd e2 2f 20 3e 1d 66 f4 b0 f5 60 5a 3c
       -0.049010295 0.15643266 -1.7782359e-09 0.01332878
000390 fe 6f 02 bd bf 81 6d 3d bd 84 6f 3d 8e 67 20 3c
       -0.031845085 0.057985064 0.0584762 0.009790314
0003a0 f5 af 1e be e5 f0 55 3e fa 06 11 3c d2 a5 02 bd
       -0.1549681 0.20892675 0.008851761 -0.03189642
0003b0 b4 65 9d bd 41 80 cd 3d 1c 6d 15 3c 8f 43 9e bd
       -0.07685414 0.10034228 0.009120252 -0.077277295
0003c0 93 c9 21 b4 6c 91 d4 3d 2a 94 af bb e2 a8 61 3c
       -1.5067626e-07 0.103792995 -0.0053582387 0.013773175
0003d0 57 65 ec bd d4 21 10 be 12 00 d1 3d 5a 89 2e 3e
       -0.115427665 -0.14075404 0.102050915 0.17044583
0003e0 b9 44 90 bd 79 aa ba 3d 86 de c4 3d 48 61 e4 3d
       -0.07044358 0.09114546 0.096127555 0.111513674
0003f0 a0 80 f7 bc b7 e7 d2 3a 6b 63 96 bb c7 cc 32 3e
       -0.0302127 0.0016090785 -0.0045894883 0.17460929

rgcn.layers.0.linear_r.W f4 [12, 256]
000000 b2 bc 13 b9 05 b2 4a be 09 be 0f be 5d 4b 88 3e
       -0.00014089307 -0.19794472 -0.14037336 0.26619998
000010 29 3c a4 3e 31 61 b1 3e 82 2c 53 3e 01 c9 94 be
       0.3207715 0.34644464 0.20622447 -0.29059604
000020 d4 de 28 3b a1 2b 4a bd 05 66 65 3e c5 37 67 bd
       0.0025767582 -0.049358014 0.22402199 -0.05644967
000030 9b 87 bc 3d df 2e 15 3c 60 57 83 3e c3 65 01 3e
       0.09205552 0.009105413 0.256526 0.12636475
000040 fa d2 d2 3d 99 98 c5 3d d3 ea e2 bd 9d 91 a2 be
       0.10294147 0.09648246 -0.110799454 -0.3175172
000050 79 06 25 bd 42 9f c2 b8 06 d1 1f 3d af e4 de 3c
       -0.040289376 -9.280305e-05 0.0390177 0.027208654
000060 7f 5e 97 be 7b c7 0d 3e 11 bd a3 3d 64 10 36 3d
       -0.29564282 0.13845627 0.07995046 0.044449225
000070 27 50 4c be 84 15 99 bd 96 98 90 bd 60 31 23 3d
       -0.1995245 -0.07474807 -0.070603535 0.03984201
000080 cb 8d ac bd 9c b6 a4 be cb 16 69 37 58 34 a3 3d
       -0.08425482 -0.3217057 1.3893189e-05 0.07968968
000090 d1 4a 51 be 4d c0 ad 3e 10 25 4f be 0b ca d8 39
       -0.20438696 0.33935776 -0.20228982 0.00041349264
0000a0 c0 68 85 3e 89 64 a5 be 2b da c5 bc 1d 9e 96 3e
       0.2605648 -0.32303265 -0.024151882 0.29417506
0000b0 ef a7 2e be 99 c2 af be 44 bb 49 be 46 3c d8 3d
       -0.17056249 -0.34328154 -0.19700342 0.10558371
0000c0 d7 04 71 bd 3c a3 58 be aa d2 53 3e 3e 79 35 3e
       -0.058842506 -0.21156019 0.2068583 0.17722031
0000d0 63 c2 1a 3e d9 f3 34 be 2a 9d d8 bb 48 e3 16 3e
       0.15113215 -0.17671145 -0.0066105323 0.14735138
0000e0 38 5d 84 3c b7 56 e9 39 5a 99 f2 bd ae 95 82 bd
       0.016157731 0.0004450583 -0.11845656 -0.063762054
0000f0 3c ce 1a 3d 36 97 48 3e 7c bc 96 3e a7 fa 8d 3b
       0.037794337 0.19588932 0.29440677 0.0043328586
000100 c2 85 a9 38 33 aa 8d 3e 11 bb 9b 39 6c 89 9d 3c
       8.083462e-05 0.27668914 0.0002970328 0.019230567
000110 fe 05 6d 3e 08 f8 9b bc 4a c6 6f 3a 94 84 55 3d
       0.23146817 -0.019039169 0.0009146674 0.05212839
000120 d1 78 b2 3d 44 55 a5 3d a6 b9 d9 bd 2e 52 bf bc
       0.0871445 0.08072904 -0.10631113 -0.023354616
000130 93 4c 70 be 0c 48 b5 3e c0 75 e0 3d 46 d1 a0 3e
       -0.23466711 0.3540653 0.10959959 0.31409663
000140 95 15 22 be df 6d 66 3d 61 2c 0e 3a 34 ed 72 be
       -0.15828545 0.056257125 0.0005423483 -0.23723298
000150 05 18 b5 3d f5 16 8a be 2c d2 a2 3e 86 f6 5e 3e
       0.08842472 -0.2697064 0.31800973 0.21773729
000160 9e 12 f7 3d 82 fe 10 be 70 bd 90 3d 9a 91 97 3e
       0.12064098 -0.14159587 0.07067382 0.29603273
000170 91 3b 6e 3c 3f e0 a1 3d 81 09 9b bc 00 82 3e 3d
       0.014540569 0.079041 -0.01892543 0.046510696
000180 12 fd f4 bd ca b6 a8 3e 46 c0 3b 3e b8 1e 46 be
       -0.11962332 0.32951957 0.18335065 -0.19347656
000190 a7 dc 8d 3e 84 a1 9e 3d fa 94 57 3e e5 e3 82 3e
       0.27707407 0.077456504 0.21052924 0.25564495
0001a0 ec b4 a7 3e 84 b8 2d be e3 cd c7 3d a9 c4 9a 3e
       0.3275522 -0.16964918 0.09756067 0.30228165
0001b0 ca 93 5e be 08 12 81 be 37 09 c4 3c 21 d1 81 b9
       -0.21736065 -0.2520907 0.023930175 -0.0002476061
0001c0 f8 c6 67 ba 35 2e 91 be db 06 93 be 04 9d ac be
       -0.00088415993 -0.28355566 -0.28716168 -0.33713543
0001d0 ec 6e d0 30 60 65 02 be d3 9a a1 3d 7f 4b 75 3b
       1.5165518e-09 -0.12733984 0.078908585 0.0037429032
0001e0 da 41 58 bd 58 8e 0b be 17 8d 2d bd 36 55 a3 be
       -0.052797176 -0.13628519 -0.042370882 -0.31900948
0001f0 9f 99 1a bb 8f 4e 41 3e b3 99 49 b8 e4 b8 41 be
       -0.00235901 0.18877624 -4.8065278e-05 -0.18918186
000200 bd a2 91 3e d1 31 6f 3e 93 dd a7 3e 36 3f 99 be
       0.28444472 0.23358847 0.32786235 -0.2993104
000210 e6 db 31 39 46 95 62 bd 17 22 e5 bd f8 b5 8c 3e
       0.00016961954 -0.05531814 -0.11188143 0.2748258
000220 c0 c6 61 3e 02 2e c4 bb 43 2e 06 3e 40 d1 5a be
       0.22048473 -0.00598693 0.13103585 -0.21368885
000230 9e b7 57 be 25 4e b6 3d 45 b2 6e 3e 90 df 49 bd
       -0.21066138 0.08901624 0.23310192 -0.04928547
000240 67 7c 18 be e4 9d 0e 3a 9b ed a0 bd 8e 53 de 3c
       -0.14891206 0.00054403977 -0.0785782 0.027139451
000250 b3 be ea 39 e2 cd 43 39 17 88 5f be 34 e7 b5 3e
       0.0004477404 0.00018673346 -0.21829258 0.35527956
000260 b7 0d 47 bd 33 bd 92 3e 76 79 b8 bd b8 72 a2 38
       -0.048597064 0.28659973 -0.09007542 7.74613e-05
000270 99 11 8b be 10 55 b1 be 21 27 a6 be 58 b9 51 ba
       -0.27161863 -0.3463521 -0.32451728 -0.00080003357
000280 1e ff 67 3e d3 1b 4d be d7 23 e3 b7 b0 1d a7 bd
       0.22655913 -0.20030145 -2.7077198e-05 -0.08159959
000290 da d0 96 3e 3c 10 52 3e 15 59 d4 bd d2 fd 75 be
       0.29456216 0.20514005 -0.103685535 -0.24022606
0002a0 bd 99 4e 3e 99 e1 6e bd f2 2d 23 3e 76 1f 4b 3d
       0.20175834 -0.058320615 0.15935495 0.04959055
0002b0 b5 f7 99 be 45 4c 81 3d 15 fe 76 3d c2 f3 1d 3c
       -0.30071798 0.063133754 0.060300905 0.009640636
0002c0 4f 1a 32 3e df c7 88 3b 7c 99 8d bc a1 d8 8a be
       0.17392848 0.004174217 -0.017285101 -0.271184
0002d0 53 c3 a6 3e ed 45 81 be a0 a9 29 39 56 59 1d be
       0.32570896 -0.25248662 0.00016180286 -0.1536611
0002e0 dc 66 a2 be e4 1b 2f 3d 44 4a 69 3e 49 a0 99 bc
       -0.317191 0.042751208 0.22782236 -0.018753188
0002f0 8d 7b 89 be 55 89 ce 39 0c be b5 3e 49 95 f2 3d
       -0.26852074 0.00039393702 0.35496557 0.1184488
000300 c0 da 15 3e 36 9a a9 bd 7c a6 b6 be f5 71 a9 3d
       0.14634228 -0.082813665 -0.35673892 0.08273689
000310 4b 2f 35 3e 0d a0 91 bd 9b fe 58 be d1 e6 48 3d
       0.17693822 -0.071106054 -0.21190874 0.04904825
000320 f4 ce 29 35 ec c1 18 be 92 37 75 36 ea 80 06 3e
       6.325856e-07 -0.14917725 3.654019e-06 0.13135114
000330 ae 63 9d 3c 76 a9 a2 39 ea 22 05 bd 13 a2 93 bd
       0.01921257 0.00031025306 -0.032504 -0.072086476
000340 20 c8 81 be ec a1 99 bd b2 2a 3b 39 2c a2 e6 bd
       -0.25347996 -0.07501587 0.00017849615 -0.112614006
000350 f3 59 4b 3e 0d 8c 2b bd b6 02 05 b9 03 77 1b be
       0.19858532 -0.04188161 -0.00012684878 -0.15182118
000360 ff 86 c2 36 56 ae b3 be 50 b9 17 3e 39 0a 78 3e
       5.797366e-06 -0.35093945 0.14816785 0.2422265
000370 22 89 97 be cb 48 b7 bc a9 96 27 3e 9c 64 89 3d
       -0.29596812 -0.022373578 0.16366066 0.06708643
000380 30 8c f7 ba ce b3 f9 bd ff 1c 1c 3e 3e 6f f9 b4
       -0.0018886384 -0.12192498 0.15245436 -4.6460804e-07
000390 cb 86 25 be 71 57 64 3e 53 b0 14 38 ab e5 a7 bd
       -0.161647 0.22298981 3.5450164e-05 -0.081981026
0003a0 d6 ce 9d 3d b8 5b ec 3d 34 00 ed bc a8 50 71 3d
       0.077054664 0.115409315 -0.02893076 0.05891481
0003b0 af 35 a7 3e a8 f4 d1 ba 8d e0 ac 3d ea e3 b9 34
       0.32658145 -0.0016018348 0.08441267 3.4624765e-07
0003c0 97 bc d5 3b f7 36 40 3e 56 34 a2 b0 80 77 15 3a
       0.006522726 0.18770967 -1.1801926e-09 0.0005701706
0003d0 dc df 02 3c 1c f1 da 3d 10 88 90 bd 3e 32 31 3e
       0.007987943 0.10690519 -0.07057202 0.17304322
0003e0 64 fd 07 3e 91 9c 68 3d 06 f5 89 be 8a fd c8 bd
       0.13280255 0.05678994 -0.2694475 -0.09813984
0003f0 c0 28 33 3d a9 50 9a 3e bb fc 91 be 5b 99 c2 3d
       0.043740034 0.30139664 -0.2851313 0.095019065

rgcn.layers.1.h_bias f4 [64]
000000 b2 71 ab bd 79 27 45 3d 88 88 11 ba 2f ad 33 3c
       -0.08371295 0.048133347 -0.0005551656 0.010966583
000010 4b f5 c1 bc c9 c3 a9 3d e1 cb 7a 3d da 01 30 3c
       -0.023676535 0.08289296 0.06122959 0.010742629
000020 62 e4 76 3d 9b c5 51 bc 7d ce a4 3c 47 f0 4e 3d
       0.060276397 -0.0128034605 0.020117993 0.050522115
000030 ad bc dd bd f0 75 b3 3d 71 50 d3 3c 7e 14 25 3c
       -0.10827003 0.08762729 0.025795193 0.0100756865
000040 21 d3 a2 3b ec c5 2c 3d 4a e3 15 3d b6 40 43 bd
       0.004969016 0.04218094 0.036593713 -0.047669135
000050 45 f3 5d bd 06 8f a9 bc 81 84 87 bd e6 7d a3 3d
       -0.054187078 -0.020698082 -0.0661707 0.079829976
000060 28 e8 13 3c b0 25 7a bd db b4 fb 3c 35 76 f6 3c
       0.009027518 -0.061071098 0.030725887 0.030085662
000070 62 30 07 bd 31 35 cf 3d 3d 88 44 3b 87 5b 55 3d
       -0.033005126 0.10117567 0.002998843 0.05208924
000080 c0 e7 a1 3d 96 c0 71 3d e6 c0 63 3d 04 89 3c 3d
       0.07905531 0.059021555 0.055603884 0.046029106
000090 13 60 2c 3d 66 af a8 3d 90 91 b1 bc 2b ef 40 bc
       0.04208381 0.082365796 -0.021675855 -0.011775772
0000a0 4f 3b 3b bd d2 1e 62 3d 44 48 a0 3c 53 77 43 3d
       -0.045710858 0.055205174 0.019565709 0.04772122
0000b0 43 a6 b4 bc 1b 5f 8f 3d d6 7d aa 3b ad 96 e3 bd
       -0.022051936 0.07000562 0.005202989 -0.111127235
0000c0 22 8a 3c bc fc 02 ac 3c 7e a7 90 bb f5 ce 89 bd
       -0.011507543 0.020997517 -0.004414498 -0.06728927
0000d0 b3 66 1c 3d 4f 4f 84 bd d2 d7 a3 3d 6a 60 84 bd
       0.03818388 -0.064604394 0.08000149 -0.06463702
0000e0 63 6c 45 3c d7 1c 6f bd 56 0c 45 bd 1d cf 96 3d
       0.012049767 -0.058377113 -0.048107468 0.073637225
0000f0 5c 1d 91 bd 34 e2 8f bc e6 98 0e bd 78 67 0c 3d
       -0.07085678 -0.017563917 -0.034813784 0.034278363

rgcn.layers.1.loop_weight f4 [64, 64]
000000 d3 ac 40 be da 1e b5 bc f6 85 11 3e d7 ae ad 3c
       -0.18815927 -0.022109438 0.14211258 0.021201534
000010 46 1c b7 3d a9 04 b9 3e 5a e4 26 be c1 17 00 3c
       0.089409396 0.36136368 -0.16298047 0.007818163
000020 5b 22 54 3e 59 69 fe 3d d6 12 ea 3d b5 a0 fd 3d
       0.2071623 0.12422437 0.11429374 0.12384168
000030 d2 36 08 be cc bd 6a 3e 4e e2 a1 3d a3 b4 c5 3b
       -0.13302162 0.22923964 0.07904492 0.0060334965
000040 8e ef e5 bd e4 9f 22 bd 95 7a 3b 3c 2f eb 09 be
       -0.11227332 -0.039703265 0.0114428 -0.13468622
000050 f4 02 34 be 1a 0b 46 3d cd d2 f2 bc 18 db 91 3e
       -0.17579252 0.04835043 -0.029641533 0.28487468
000060 cb dc 2d be 98 9e 18 3e a2 7b 67 3e d5 e9 14 3d
       -0.16978757 0.14904249 0.22605756 0.036355812
000070 4c b7 29 ba 8a 63 1d 3d 32 46 e5 3d 8d 9c 81 3e
       -0.0006474152 0.038425006 0.11195029 0.2531475
000080 96 7a bc 3d 74 2e f7 3d 7d 51 09 3d 6e 78 82 3e
       0.09203069 0.12069407 0.03352498 0.25482506
000090 23 8f 4f bd f4 27 12 3e 61 e2 4a 3e 92 a3 e0 3d
       -0.050673615 0.14273053 0.19812919 0.109686986
0000a0 ed cd 40 3e bd c9 3d bd a7 e7 31 be 3a 7f 2f be
       0.18828554 -0.04633497 -0.17373525 -0.17138377
0000b0 ff c4 0d bd 0b c3 8f 3e 4e f1 df bd b7 4f 94 3c
       -0.0346117 0.28078493 -0.10934697 0.018104417
0000c0 9d 2d d6 3d 1f 89 97 3d 25 02 8d 3d b5 85 8f bc
       0.10457919 0.07399201 0.06885175 -0.017519811
0000d0 cc 05 7c 3c 84 e4 9e 3d f1 05 c9 3d 4a 5b 2d be
       0.015382241 0.0775843 0.09815586 -0.16929355
0000e0 26 b1 15 3e e9 1f 1e 3e 9d 06 16 bd f0 0c f8 3d
       0.14618358 0.1544186 -0.0366274 0.12111843
0000f0 8e 36 2f be ca 44 4d be 73 c9 14 3e b6 83 3a 3e
       -0.17110655 -0.20045772 0.14529972 0.18214306
000100 33 bc e7 3d 24 b9 6f 3d 1b c0 e1 3c 41 26 5f bd
       0.11315193 0.058526173 0.027557423 -0.05447984
000110 86 76 82 bc 33 42 0a bd b1 90 ee bb 03 9b b9 bc
       -0.015925657 -0.03375454 -0.007280432 -0.022656923
000120 eb 62 c0 3c f0 fa 32 bd e5 5c 19 bd 48 90 1a 3d
       0.023484668 -0.043696344 -0.037442107 0.037735254
000130 2e d9 cc 3d 9c 0b b7 bd 14 6a 26 3e b9 68 bd 3d
       0.10002361 -0.08937761 0.16251403 0.0924849
000140 51 22 3f b9 52 bd 44 bd 22 01 ef bc a1 a6 79 3d
       -0.00018227963 -0.048032112 -0.029175345 0.060949925
000150 b1 4f e9 bc 9b 21 35 3d 4c 1f 24 bd 29 23 c7 bd
       -0.028480383 0.0442215 -0.04006891 -0.09723503
000160 a4 4f 59 3c 24 ba 16 bd bd 18 c0 bd 64 5e 7c bc
       0.013263617 -0.03679861 -0.093797185 -0.015403364
000170 d6 c7 03 3e 5c 65 0f be 37 53 dc 3b 6a 8a 9b bd
       0.128692 -0.1400351 0.006723787 -0.0759476
000180 c5 df f0 bd 22 cd bc bd 4c ce 20 3e 72 b9 98 bd
       -0.11761431 -0.092188135 0.15703696 -0.07457246
000190 85 6b 56 3d 80 08 97 3d 13 cb dd bd ac a4 97 3b
       0.052348632 0.07374668 -0.10829749 0.0046277847
0001a0 16 c8 25 be 0a 9b 45 3d 7c a8 0a 3c 9e 3d 68 3d
       -0.16189608 0.04824356 0.008463021 0.056699388
0001b0 98 54 a0 3b 17 33 c8 bb f7 b7 b4 3c 1e 40 e9 3d
       0.004892897 -0.006109606 0.022060378 0.113891825
0001c0 f3 56 97 3d d1 06 7b bd 5b 1f 81 bb b6 60 f9 3d
       0.07389631 -0.061285798 -0.0039405054 0.12176649
0001d0 5d 45 11 bd eb 50 62 3e 52 eb 75 bc 57 7d 98 3d
       -0.03546654 0.2210118 -0.015009718 0.07445782
0001e0 58 42 d9 3b 4f 91 6b bc cf 4c 6a 3d da 5c e2 bd
       0.0066302232 -0.014377906 0.057202157 -0.11052866
0001f0 0d ab 63 3d 1d 6b e2 3b a5 40 6e ba 43 a6 24 be
       0.05558305 0.0069097416 -0.0009088612 -0.16079049
000200 f0 17 38 be 98 10 ad bb 1c 49 c0 bd 28 e9 ce 3d
       -0.17977881 -0.005281519 -0.093889445 0.10103065
000210 99 df 30 3e 22 e0 94 3d 1e 12 0d be ca 93 0e be
       0.17272796 0.072693124 -0.13776442 -0.13923565
000220 22 29 dc 3d 53 84 2b 3e 9a 7a 20 be 55 d0 24 be
       0.10750033 0.16749696 -0.15671769 -0.16095097
000230 1d db df 3c b5 c3 e2 bd 76 e4 b2 3c 85 c0 11 3c
       0.027326161 -0.110724844 0.021837454 0.008895998
000240 f8 18 4c bb 7a 87 51 3e 3f 37 f6 bd 72 8b b2 bd
       -0.0031142812 0.20461836 -0.12022256 -0.08718003
000250 fa 2a fe ba 20 ff 34 3c 95 08 09 3e ff 3b d3 3d
       -0.001939147 0.011047155 0.1338218 0.10314178
000260 52 11 a7 3d 77 78 ba 3d 69 48 67 3c b5 d9 e5 bb
       0.081576005 0.09105008 0.014116385 -0.007014478
000270 6b a8 06 3e 0a e3 0e 3e 55 50 93 3d ff 7f 8d 3e
       0.13150184 0.13953796 0.071930565 0.27636716
000280 b9 3c 10 bc 0a ad 0a 3e d3 95 7e 3d c0 e6 82 3e
       -0.00880354 0.13542572 0.062154602 0.25566673
000290 b6 07 49 3d 6f e9 f2 bc fe 65 0c 3d 1c 6b 0c 3c
       0.04907962 -0.029652325 0.034276955 0.008570459
0002a0 51 74 39 bd 9d aa a2 bd 0e 54 70 3d 30 c9 36 bc
       -0.045276944 -0.07942698 0.05867391 -0.011156365
0002b0 a6 a4 50 bd ea 07 33 3e ff 89 13 3e c7 ae 55 be
       -0.05093827 0.17483488 0.1440811 -0.20867454
0002c0 22 f5 6a 3e 24 19 02 be 7b d9 99 3b ba eb 04 bd
       0.22945073 -0.12704903 0.004695115 -0.03245137
0002d0 0a 1f 32 3e 97 27 03 be 0e 97 14 3e 11 5c 9d 3d
       0.17394653 -0.12808071 0.14510748 0.07683576
0002e0 92 3f 61 bd 47 78 d6 bd c3 73 3f 3d 1a 9f 5a bb
       -0.054992266 -0.1047216 0.04674126 -0.0033358992
0002f0 90 af a7 be 36 1c df 3d 73 1b f7 bc 5f 5d 29 bd
       -0.3275113 0.10894053 -0.030164456 -0.04134881
000300 4e e6 55 3c 52 98 bb bd 84 d9 98 bd b3 32 52 3e
       0.013055397 -0.09159912 -0.07463363 0.20527153
000310 a8 80 bf 3d 6d 32 b8 3e 5e d3 27 be 6a 9f cd bd
       0.09350711 0.35975972 -0.16389224 -0.100401714
000320 f9 99 25 be 92 36 53 3e 5c 50 41 3e 47 32 8f bd
       -0.16172017 0.20626286 0.18878311 -0.069920115
000330 6a d9 bf bb e0 bb 4a 3e 6e 07 45 3c 53 b2 cb 3d
       -0.005854775 0.19798231 0.012025697 0.09946122
000340 35 ea 2b be ad d2 03 3e a2 85 54 3e 47 98 3c be
       -0.16788562 0.12873335 0.20754102 -0.18417464
000350 cd 47 a0 3d 7b f1 bc 3d 7c dc 74 bd f3 90 39 3e
       0.07826195 0.09225746 -0.059780583 0.181217
000360 19 ff 52 3e 92 87 0c bd c5 7c 6e 3e 25 29 19 bd
       0.20605125 -0.034308977 0.23289783 -0.037392754
000370 d0 ea 2a be 38 7f e5 3c 96 87 b0 3d 96 8f 75 3d
       -0.16691136 0.028014764 0.08619611 0.059951387
000380 d8 d2 14 bb 2a 63 79 3e 0d 92 f1 3d 9a 4a 86 3e
       -0.002270868 0.24354234 0.11795435 0.2622879
000390 b8 61 20 be 3b 85 32 bb 81 86 1a be 45 b5 fb 3d
       -0.15662277 -0.0027240056 -0.15090372 0.12290434
0003a0 13 28 83 3d e6 ca 0d 3d 52 be b3 3d a6 74 40 3e
       0.06404128 0.034617327 0.08776535 0.18794498
0003b0 bc 83 09 be 2b 24 8a 3e ba 75 21 3e 3c be 6a be
       -0.13429159 0.2698072 0.15767565 -0.22924131
0003c0 62 e3 cf 3d 1f 1f ef 3b 74 7f 17 be 6f 5d a1 bd
       0.10150792 0.007297411 -0.14794713 -0.07879149
0003d0 7c 14 48 be 7c d2 1d be 52 0c 0c 3e 4e 31 15 3e
       -0.19539064 -0.15412325 0.13676575 0.1456959
0003e0 84 fd 01 bd 6a 53 dc bd d5 be 13 3e 39 29 97 3d
       -0.031735912 -0.107580975 0.14428265 0.073809095
0003f0 03 57 a0 be 83 08 06 3d 04 c1 2f 3e 18 55 7b 3e
       -0.31316385 0.03272296 0.17163473 0.2454418

rgcn.layers.1.linear_r.W f4 [12, 256]
000000 ab 24 52 be 28 3e 83 be 8e 99 9f 3a 90 3b 30 3e
       -0.205218 -0.2563336 0.00121765 0.17210221
000010 9e 19 cd b9 cd 3b b6 3e 8e e5 97 b7 58 1b 56 bd
       -0.00039119733 0.355925 -1.8107497e-05 -0.05227217
000020 24 cb 83 3e a0 4e a1 be 01 0c d1 bb 1f 03 1b 3e
       0.25740921 -0.315053 -0.006379605 0.1513791
000030 1e 5a 0e be 4d 36 af 3e 23 d6 9e 3e 4a 08 4b 3a
       -0.13901564 0.34221116 0.31022748 0.00077450706
000040 2b 06 06 bd 35 f9 72 3d 92 3f 90 be ab 9b 09 be
       -0.032720726 0.059319694 -0.281735 -0.13438289
000050 8f 53 0e 3e 45 32 9b be 07 30 19 3d 3f 3d 26 b9
       0.13899063 -0.3031179 0.037399318 -0.0001585381
000060 f1 47 8a bd 2b 7f 4b 3e a0 a1 55 be f3 ce 8c 3e
       -0.06752003 0.1987273 -0.20862436 0.2750164
000070 db f5 9b be e4 99 1b 3e fe 0e 43 3e cf 4f a9 b8
       -0.3046101 0.15195423 0.19048688 -8.0734135e-05
000080 c3 98 40 3e 9f 79 a2 bd 81 38 1d 3b 0b 11 38 bd
       0.18808274 -0.07933354 0.0023989978 -0.04493813
000090 c2 af aa 3c db 2e 67 be 42 c8 99 3c 97 e8 04 be
       0.020835761 -0.22576468 0.018772248 -0.12979351
0000a0 2b e6 87 bd 62 74 93 3d a9 99 b0 3e 30 79 95 35
       -0.06635698 0.07199933 0.34492233 1.1136635e-06
0000b0 93 d2 9b bd 08 dd 77 be 07 02 c7 3b 1e 27 d1 b7
       -0.07608523 -0.2420541 0.0060732397 -2.4932957e-05
0000c0 03 95 22 be b7 08 6a 3d 24 2e 40 bc ee d6 b1 3b
       -0.15877156 0.057137217 -0.011729751 0.005427233
0000d0 8e cd 5a 37 25 de 8f 3e f8 61 d9 bd 83 94 4b b5
       1.3041672e-05 0.2809917 -0.10614389 -7.5839506e-07
0000e0 60 92 1d 3e ff 1c 94 3d 08 26 ae 3c d7 db 8d 3d
       0.15387869 0.07232093 0.02125837 0.06926697
0000f0 3d fa 8e 3e e6 af 70 3a af 3d 7d 38 d3 99 b2 3d
       0.27925292 0.00091814843 6.0377348e-05 0.08720746
000100 62 04 5d 3d 08 e6 70 be e6 7b e9 3b 88 41 b1 be
       0.053959258 -0.2352525 0.0071253655 -0.3462031
000110 36 54 34 bc e3 32 ac 3e 32 2a 32 ba 62 22 aa bc
       -0.011006406 0.33632573 -0.0006796449 -0.020768348
000120 a6 db bd bc 4a 7d a3 3c c1 a8 ff af cf 1c 9d be
       -0.023176026 0.019957203 -4.6504137e-10 -0.30686042
000130 84 90 5b 3c b6 94 a5 be f4 ef 68 3e 2a 30 50 be
       0.013401154 -0.3234002 0.22747785 -0.20330873
000140 68 8f b8 bd 55 52 9b 3e 6e b6 af be da 9b 8f bd
       -0.090117276 0.30336252 -0.3431887 -0.07012148
000150 22 05 6e 3d 7d b8 92 be 09 16 68 be b2 91 b0 3e
       0.058110364 -0.28656378 -0.22664656 0.34486157
000160 25 39 93 3e e1 bb 62 3e 00 ae 19 3e 7f e6 92 be
       0.28754535 0.22141983 0.15007782 -0.2869148
000170 35 ee 83 3e 4b f5 4e 3e 27 56 5f 3e 8b 42 46 be
       0.25767675 0.2021076 0.21810208 -0.19361322
000180 9c a2 09 be 6d 71 a7 bc 4c 7a 0a 3c 8d d9 b6 bc
       -0.13440937 -0.020439828 0.008452009 -0.022320533
000190 c2 c7 51 37 c9 8e 89 3e bf dc 6f be 4f 5d c9 bd
       1.25038805e-05 0.2686675 -0.23424052 -0.0983225
0001a0 59 33 17 35 36 35 d5 b2 f0 c6 42 3e 2a 06 b0 be
       5.6326604e-07 -2.4820661e-08 0.19021201 -0.34379703
0001b0 be be 94 38 32 7f 81 3e 32 35 4a be 4e 74 2c bd
       7.0927184e-05 0.25292355 -0.19746855 -0.042103104
0001c0 29 cc 30 3e 03 37 9c bc 56 e7 0d 31 6b 23 c6 3d
       0.17265381 -0.0190692 2.06497e-09 0.09674724
0001d0 d5 0c 8f be 46 46 9f be 35 72 a1 be a0 f9 7d 3d
       -0.27939478 -0.31108302 -0.31532446 0.06200564
0001e0 cb a3 92 3e 00 5a 14 bc dc 0a 98 3e c7 a7 39 3e
       0.2864059 -0.009054661 0.29695785 0.18130408
0001f0 14 88 89 be 9a 5d e1 bd 8c 56 4c bd 90 25 e5 37
       -0.26861632 -0.11004181 -0.049887225 2.7316419e-05
000200 74 34 a1 3e 32 ae 7a be d6 45 9e be a1 22 9e 3d
       0.3148533 -0.24480513 -0.30912656 0.07721449
000210 98 bf 42 3b 33 88 b3 3e 56 e4 bf 3c 63 5b b0 3e
       0.002971625 0.3506485 0.023424309 0.34444723
000220 19 1e 9e 3c be 58 4b be 1f b3 82 be ed 97 b2 3e
       0.019301461 -0.19858071 -0.25527284 0.34881535
000230 8b 7c a0 be 64 57 a3 be 6e f8 1b 3e 85 10 b1 be
       -0.3134502 -0.3190261 0.15231487 -0.34582916
000240 bc 0b ed bd 57 30 4c 3e 04 b4 69 be 9b 4a 94 3e
       -0.11574504 0.19940315 -0.22822577 0.2896317
000250 94 a3 f5 37 2e 88 a0 3d 4b 3b 0b bc 7a 15 0a bc
       2.9282448e-05 0.07838474 -0.008498023 -0.008427972
000260 38 40 98 be a4 18 4e 3e 52 ba ce bc a7 47 af be
       -0.29736495 0.20126587 -0.025235329 -0.34234354
000270 f7 46 27 be 73 10 fd 39 d7 ed b6 3e b7 53 ed bd
       -0.16335665 0.00048268176 0.35728332 -0.11588233
000280 63 14 e0 bd a5 66 13 be 33 f3 87 3d 5d 1f 32 be
       -0.109413885 -0.14394625 0.066381834 -0.17394777
000290 17 fa 8d be 29 bc 85 3e b3 71 6d b8 23 ed 02 3e
       -0.27729866 0.26120117 -5.6611094e-05 0.12785773
0002a0 22 6f 81 be 41 86 96 3b 28 70 1d be d8 92 58 3e
       -0.252801 0.004593641 -0.15374815 0.21149766
0002b0 62 25 bc bb d6 97 08 3e a4 f8 05 3e a9 25 24 3e
       -0.005741761 0.13339171 0.1308313 0.16029991
0002c0 46 b9 1d be 50 c7 8a 3e 7b 6f 78 be f4 1f 7d 3e
       -0.15402707 0.27105188 -0.24261276 0.2471922
0002d0 59 23 8d 35 cd f9 3a 3c ac c8 9c 3e 62 e2 25 3e
       1.0515606e-06 0.011412096 0.3062185 0.1619964
0002e0 4e 5c b6 3e 48 fe 19 3d 0f 8f 0d b8 4b 89 0a be
       0.35617298 0.037596017 -3.3750253e-05 -0.13528936
0002f0 11 0c 73 3e d6 02 bd 3c 7e a7 de 3d b1 72 92 38
       0.23735072 0.023072641 0.1087179 6.9831854e-05
000300 80 53 85 3e 84 b9 39 3e b1 16 9b be ba 0b a0 3c
       0.26040268 0.18137175 -0.3029075 0.019536842
000310 f6 a9 ad be 78 54 32 bd 3c 91 95 bd f8 12 8b be
       -0.33918732 -0.043537587 -0.07303092 -0.2716291
000320 5f 34 89 bb 53 84 42 3e be d6 3b 3d 15 19 41 b3
       -0.0041871513 0.1899579 0.04585909 -4.4959126e-08
000330 7a 37 82 3e b9 8a 46 be 2a 6d c3 bc 98 e8 b0 bd
       0.2543295 -0.19388856 -0.023855764 -0.08638114
000340 10 24 5d 3e 95 9c 82 be 7b ad 00 3e ea 2d 5c be
       0.21595788 -0.25510088 0.12566178 -0.2150189
000350 e0 8c d9 3d 0c 2e d6 bc 88 ea b3 3c 95 cb d1 3b
       0.10622573 -0.026145004 0.02196242 0.0064024427
000360 c7 a4 8f 3e 4f ae ad 3e 3e f0 3e 3e 6c 5f f8 bc
       0.28055403 0.3392205 0.18646333 -0.030318938
000370 ab d6 2f be 89 1d 1d b8 50 b4 52 3e 79 a6 08 3b
       -0.17171733 -3.7459224e-05 0.20576596 0.0020851179
000380 04 27 97 3e db d7 a9 be 91 93 e9 3d 09 dc 5d bd
       0.29521954 -0.33172497 0.11405099 -0.05416492
000390 b5 12 31 39 2f 62 10 b9 f8 65 48 be 54 ad 8c be
       0.00016887004 -0.00013769486 -0.19570148 -0.2747599
0003a0 5e 12 63 3c c1 6d 41 be c9 1e e6 3d 35 8f b2 be
       0.01385936 -0.18889524 0.112363406 -0.34874883
0003b0 69 25 c1 3d 6c 5f a4 be 42 9d 3e be aa 9c a7 3e
       0.094309635 -0.3210405 -0.18614677 0.32736713
0003c0 dc b8 39 39 d7 5d 1d be e8 c8 37 be 79 7d fe bd
       0.0001771184 -0.15367828 -0.17947733 -0.12426276
0003d0 bf 0d a1 bd 01 e0 8e be 71 ae 83 3e f0 d6 9d be
       -0.0786395 -0.27905276 0.25719026 -0.30828047
0003e0 dd 11 84 3c a3 76 e4 3d 87 07 77 3e f4 b3 79 bd
       0.0161218 0.11155441 0.24123965 -0.060962632
0003f0 9c 5d fc ba 51 47 67 3e ee d6 97 3d 01 67 ec 3d
       -0.0019253972 0.22585799 0.074140415 0.11543084

rgcn.i2h.0.weight f4 [64, 2000]
000000 64 ea 50 bc 4d f2 98 bb 8a e9 06 3d 76 6d 70 bc
       -0.012751196 -0.0046675564 0.032937564 -0.014674535
000010 d9 a7 a1 bc ba 77 8d bc 5c 7b b0 bc 0a 41 82 3c
       -0.019733356 -0.017269004 -0.021543197 0.015900154
000020 c1 50 17 bc a2 8f c5 bc 28 5b dd bc 58 54 4e 3d
       -0.009235562 -0.024116341 -0.027021006 0.050373405
000030 51 7a c5 bc a7 c9 a1 3c b0 44 fa 3c 83 55 33 bc
       -0.024106177 0.019749476 0.03055033 -0.010945681
000040 3f ca 68 bc cd 13 af bc d6 86 bf bc 67 2b b4 bc
       -0.0142083755 -0.021371746 -0.023379724 -0.021993352
000050 57 69 7c bc 08 ee 6e bc 08 f2 e1 bb 85 dc d6 bc
       -0.015405974 -0.014583118 -0.0068953075 -0.026228199
000060 5e 6b 82 bc c2 cb bc 3c 18 38 1f bd 64 be 6f bc
       -0.015920337 0.023046378 -0.038871855 -0.014632795
000070 5b 61 4d 3d 22 4d c8 bc fb ac 3b 3d 7e ee ae 3c
       0.050141674 -0.024450842 0.045819264 0.021353956
000080 11 c9 f0 bc 15 af 87 bc 52 dd bf bc d7 69 03 bd
       -0.029392751 -0.016562978 -0.023420963 -0.03208336
000090 e0 e3 b2 bb b0 72 d8 3c 56 64 5f bc 16 5b a7 bc
       -0.0054592937 0.026421875 -0.013634762 -0.020429175
0000a0 9f 8f a8 3c 66 c8 5b 3c ca 43 a3 bc 80 a3 c4 bc
       0.020576296 0.013414478 -0.019929785 -0.024003744
0000b0 fe 3f bc bc db 1c 9e 3c c1 08 47 bc b1 7d 9d bc
       -0.022979733 0.019300869 -0.012148083 -0.019224973
0000c0 0b e2 0e bc 20 03 82 bc 1a 67 c1 bc 08 6c 36 bc
       -0.008720885 -0.01587063 -0.023608733 -0.011134155
0000d0 9c 5e f0 bc 94 c3 b0 bc ec f8 ba bc 3b de a4 bc
       -0.029341988 -0.021577634 -0.022823773 -0.020125499
0000e0 9d 08 bd bc fe d5 d4 bb 80 6f 1d bc 8e c4 9c 3c
       -0.023075396 -0.0064952364 -0.009609103 0.019136693
0000f0 60 95 fb 3c f7 c2 42 bc ea 23 0c bd 6d ea d9 bc
       0.030710876 -0.011887304 -0.034213938 -0.02660104
000100 7b bb ac 3b 42 f3 83 3c b7 1d 5c 3d cf 30 dc bc
       0.005271373 0.016107205 0.053739276 -0.026878743
000110 94 02 88 bc 83 95 fb bc 32 40 4d 3c 35 23 a8 3c
       -0.016602792 -0.030710941 0.012527512 0.0205246
000120 c8 f7 34 ba a3 f2 a4 bc dd 19 b7 3c 80 1d 17 3d
       -0.00069033774 -0.02013523 0.0223512 0.036893368
000130 0e 76 ca 3b f4 5b 8f bc 7e f5 bf 3b 4d f6 46 bc
       0.006178624 -0.017499901 0.0058581224 -0.012143684
000140 8f b1 b1 bc 48 a1 c8 3c d5 a8 1d 3d 09 82 e5 bb
       -0.021691112 0.024490967 0.03849109 -0.007004027
000150 e2 45 a1 bc c4 8e c4 3a 58 45 80 bc 7d 45 ed bc
       -0.019686643 0.0014996161 -0.015658066 -0.028963799
000160 81 8e 13 3c 64 5f 78 3d 88 03 96 bc 4e 1c 4c bc
       0.009006144 0.060637847 -0.01831223 -0.01245792
000170 41 87 56 3d f6 ce 83 bc 72 db 6d bc 91 00 a6 bc
       0.052375082 -0.016089898 -0.014517652 -0.020263942
000180 bc d4 df bc ba fc 08 b7 60 46 aa bb 29 44 cd 3c
       -0.02732312 -8.165074e-06 -0.0051963776 0.025056915
000190 78 ba cf bc 6c 82 46 3d 55 c0 b4 bc e1 bd 5f 3d
       -0.02535747 0.048464224 -0.022064367 0.054624442
0001a0 7e ac 1e 3c 89 42 bb bc 8a 8b fd bc 3c 9d ba bc
       0.00968468 -0.022858875 -0.030950326 -0.022780053
0001b0 df c9 a8 bc 75 7d f9 bc d0 9d e9 bc 47 2a eb bc
       -0.020604072 -0.03045533 -0.028517634 -0.028706683
0001c0 bd 51 e7 3c ab db 8d bc d2 c9 aa bc d0 e3 57 3b
       0.028237218 -0.01731666 -0.020848189 0.0032942183
0001d0 a3 cd 0e bc c6 4b d2 3c d6 2c ef 3b 94 46 dc bc
       -0.00871602 0.025670897 0.007299046 -0.026889123
0001e0 a4 98 ec 3c 40 90 af bc 71 d1 68 bc c1 55 a5 3c
       0.028881378 -0.021431088 -0.014210091 0.020182492
0001f0 e1 a9 20 3d 78 9a 90 bc 08 c6 9c bc f8 39 c1 bc
       0.03922451 -0.017651781 -0.019137397 -0.023587212
000200 98 91 66 3c 02 58 5a 3c 7f 5a 45 bc c0 f0 7a bc
       0.014072798 0.013326647 -0.012045502 -0.015316188
000210 2a 18 d0 bc f4 fe c9 bc 1a 35 86 3c 00 3f b5 bc
       -0.025402147 -0.024657704 0.016382743 -0.022124767
000220 03 f9 20 3c 83 18 c8 bc 9c 64 fe bb c0 8c 0b 3d
       0.009824994 -0.02442575 -0.0077634584 0.034069777
000230 f7 65 e8 3b 82 61 b8 bc 5b fe 20 bb 89 26 73 3b
       0.0070922333 -0.022507433 -0.002456567 0.0037101826
000240 5d 3a 63 3c 88 94 e3 3c bf 54 a6 bc 23 64 49 3d
       0.013868895 0.027780786 -0.020304082 0.049167763
000250 9b aa b0 bc 19 40 3b 3c 3b dd 04 bd 22 0e 86 bc
       -0.021565726 0.011428856 -0.032437544 -0.01636416
000260 d6 de 5f 3b b5 dc b1 bc 93 42 59 3d 02 1b bf bb
       0.003415992 -0.021711687 0.053042006 -0.005832077
000270 c5 30 e0 bc 8b eb 3d 3d 47 48 d4 bc d2 3c b6 3c
       -0.027367005 0.04636721 -0.02591337 0.022245798
000280 ea f5 07 3d 5f 4f d3 3c 73 f0 01 bd 13 49 83 bb
       0.033193506 0.025794683 -0.03172345 -0.004006514
000290 93 e1 5d bc 09 22 aa bc 2f 48 a8 bc e9 c7 4c bc
       -0.013542551 -0.020768182 -0.020542232 -0.012498834
0002a0 a5 a5 31 bc a6 cc 0f 3d 06 7b d3 3c cb ea 19 bc
       -0.010842715 0.035107277 0.025815498 -0.009394358
0002b0 df b1 61 bc 19 08 a1 bc ed 65 cb bc 4b 0d af bc
       -0.013775318 -0.019657182 -0.024828875 -0.021368643
0002c0 c8 0e 89 bc 65 d1 bd 3c 44 79 4e 39 d5 63 95 bc
       -0.016730681 0.023171136 0.00019690866 -0.01823608
0002d0 15 2c 02 bc 66 10 b3 3b 10 c9 56 3d 7d 9a dc bc
       -0.00794508 0.0054646013 0.052437842 -0.026929135
0002e0 32 ab ab bb 79 4e 95 bb 5a 07 b8 bc 6c 34 77 3c
       -0.005238914 -0.004556474 -0.022464443 0.015088182
0002f0 c9 00 86 bc 6c c3 4b bc b1 ac f3 3b 5c 34 be bc
       -0.016357796 -0.012436729 0.007436358 -0.023218326
000300 87 5e 86 b9 24 66 f4 bc 7b 5c ce bc 93 3c 85 bc
       -0.000256289 -0.02983386 -0.025190582 -0.016264236
000310 68 d6 bd bc 71 e2 40 3d 3b bf ad 3c 51 3f c8 b7
       -0.023173526 0.04709095 0.02120935 -2.3871342e-05
000320 81 bd ed bc 2d bb 9b 3c ea 2e bd bc cd 07 8b 3c
       -0.029021027 0.01901015 -0.02309366 0.016971493
000330 0b e4 b6 bc d0 d0 a4 bc 18 06 a1 3c 48 19 56 3d
       -0.022325536 -0.0201191 0.019656226 0.052270204
000340 aa 53 b3 bc 31 86 98 bc 06 b2 ca bc 61 d4 ca 3c
       -0.02189048 -0.018618675 -0.024743091 0.024759473
000350 ea b9 e8 bc 1c 0d 99 bb 68 b3 9b bb 70 fe e0 bc
       -0.028408963 -0.004670752 -0.0047516115 -0.027465075
000360 9c 34 0a ba de f3 8f bc 93 fa a1 bc 2d b4 94 bc
       -0.00052721216 -0.01757234 -0.019772803 -0.01815232
000370 4f 08 13 bc 4c 0c 96 3c 1f 5e c4 bc a3 33 e5 3c
       -0.008974149 0.01831641 -0.023970662 0.027978724
000380 3e 5d 26 3c 69 ba 8e bc f5 40 b1 3c 15 8f 65 3d
       0.010154067 -0.017422872 0.02163742 0.056044657
000390 83 32 01 ba 15 71 cf bc da 94 97 3a ce 37 8e 3b
       -0.00049284863 -0.025322476 0.0011564747 0.0043401485
0003a0 af 3b bc bc 4d 15 bc 3b 56 39 5a 3c bf 32 d3 bc
       -0.022977678 0.005739844 0.013319334 -0.025781034
0003b0 34 18 67 bc 58 70 ab bb 06 db 0f bc a1 fb 8f bc
       -0.014104892 -0.0052318983 -0.008780247 -0.01757604
0003c0 95 3d d5 3c 14 8d 83 bc 95 ee 9f 3c c0 78 98 bc
       0.026030341 -0.016058482 0.019522944 -0.018612266
0003d0 78 e8 af bc d4 48 ad bc f2 66 a5 3c 60 55 a5 bc
       -0.021473154 -0.021152891 0.02019069 -0.020182312
0003e0 2c 05 0d 3d 68 4d 19 3c 24 ed 24 bc 7a f2 01 3d
       0.03442876 0.009356834 -0.010066304 0.031725384
0003f0 3e 86 30 3d ee 8b c6 bc e7 46 11 3d 72 06 94 bb
       0.043096773 -0.024236646 0.03546801 -0.00451737

rgcn.i2h.0.bias f4 [64]
000000 8e d2 2f bd 16 da 86 ba 7a 1e 62 3b 86 eb bc 3d
       -0.04292541 -0.0010288383 0.0034503029 0.0922461
000010 b4 dc 8e bc 1a 82 cb 3a 89 1c ea bd 52 36 3b bd
       -0.017439224 0.0015526444 -0.11431224 -0.0457061
000020 cc 77 27 bd 37 c4 2e 3c 24 d0 39 3d 42 ed cc 3c
       -0.04088573 0.010666898 0.045364514 0.025015477
000030 32 06 54 bd 64 a0 6e 3d 7b 5c ae bd 66 57 e8 3c
       -0.05176372 0.05825843 -0.08513733 0.028361987
000040 7f b8 f7 3b 91 17 57 bd 6b 8d 20 bc 19 11 bf 3c
       0.0075598354 -0.05251271 -0.009799342 0.023323582
000050 23 6f 70 3d f6 8c ad 3d cf 14 88 bd 1d 2a 59 3d
       0.05869974 0.08474152 -0.06644594 0.053018678
000060 86 aa 26 bd ea 63 3e 3d 01 fe 4d 3d e6 57 ca bc
       -0.040689968 0.046482004 0.050291065 -0.024700116
000070 3d fa ef bc 21 ff b7 3b e0 a6 45 bd 84 a4 10 bd
       -0.029294128 0.0056151305 -0.048254848 -0.035313144
000080 e4 cf 54 3d 02 5d d7 3c 12 db 43 bd e3 65 44 bd
       0.051956072 0.026289467 -0.047816344 -0.04794873
000090 7e d6 0e 3d 24 3d 80 bd 0f 1c 4e 3d 00 c9 11 3b
       0.034872524 -0.06261662 0.050319728 0.002224505
0000a0 cb 1d 39 3b cf 7f cd bc 9e d6 8e bc 0a bb 99 bb
       0.0028246518 -0.025085358 -0.017436322 -0.0046914862
0000b0 40 6e 38 3d fe ce 33 3d 11 47 67 3d 85 16 84 bc
       0.045027018 0.043898575 0.05646426 -0.01612402
0000c0 ba 84 2b bd e1 c6 98 3c 2e f8 28 39 c0 a6 33 3d
       -0.041874625 0.01864952 0.00016114183 0.043860197
0000d0 76 83 2b bc 89 52 85 3d e0 85 39 bd 62 94 0d 3d
       -0.010468354 0.06509883 -0.04529369 0.034565337
0000e0 01 0b 86 3d 88 53 14 3d 87 27 4e bd 6d 4f b0 3d
       0.065450676 0.036212474 -0.050330665 0.08608899
0000f0 7f 3a 19 3d 57 95 0d 3b 0c 3c dc 3c fb 34 e3 bc
       0.0374093 0.0021603906 0.026884101 -0.027735224
