LP/HGT/checkpoint/checkpoint_youtube_2.pt (torch, 780341 bytes, 29 tensors)

gcs.0.relation_pri f4 [5, 8]
0	0x3f8001ac	1.000051
1	0x3f800099	1.0000182
2	0x3f7ffeda	0.9999825
3	0x3f80007d	1.0000149
4	0x3f7ffcd2	0.9999515
5	0x3f7fff94	0.99999356
6	0x3f7fff85	0.99999267
7	0x3f8000ff	1.0000304
8	0x3f7fffce	0.999997
9	0x3f7ffd27	0.99995655
10	0x3f800146	1.0000389
11	0x3f800395	1.0001093
12	0x3f7ff725	0.9998649
13	0x3f800021	1.0000039
14	0x3f7ffd0c	0.99995494
15	0x3f7ffe89	0.99997765
16	0x3f7fff71	0.9999915
17	0x3f7ffe0a	0.9999701
18	0x3f7ffc1e	0.99994075
19	0x3f7fffb6	0.9999956
20	0x3f7ffe3d	0.9999731
21	0x3f7ffeab	0.9999797
22	0x3f8000bb	1.0000223
23	0x3f7fff9a	0.9999939
24	0x3f800281	1.0000764
25	0x3f800066	1.0000122
26	0x3f7fffce	0.999997
27	0x3f800175	1.0000445
28	0x3f7fffd3	0.9999973
29	0x3f7ffd6e	0.9999608
30	0x3f7fffdb	0.9999978
31	0x3f7fff18	0.9999862
32	0x3f800225	1.0000654
33	0x3f7fff73	0.9999916
34	0x3f7fffd4	0.9999974
35	0x3f800094	1.0000176
36	0x3f8000a9	1.0000201
37	0x3f800020	1.0000038
38	0x3f800177	1.0000447
39	0x3f7fff58	0.99999

gcs.0.relation_att f4 [5, 8, 8, 8]
0	0x3d672819	0.056434724
1	0xbcd4cde0	-0.025977075
2	0xbd52232e	-0.05130308
3	0xbd6307b1	-0.055427257
4	0x3d8c1e94	0.0684177
5	0x3d8fd454	0.0702292
6	0x3c802340	0.015641809
7	0x3d5cb98c	0.05388789
8	0x3cda31dd	0.026635105
9	0x3da3d0fe	0.079988465
10	0x3d9a0605	0.075206794
11	0x3d6800fe	0.05664157
12	0xbd4290ad	-0.047501255
13	0xbd9fb188	-0.07797533
14	0x3d20cd78	0.03925845
15	0xbd934c05	-0.07192234
16	0xbd1da6fa	-0.03848932
17	0x3caf4104	0.021393307
18	0xbd92f85a	-0.071762756
19	0xbc93d2f2	-0.018044923
20	0x3d3170c0	0.043320417
21	0x3dab8433	0.083748244
22	0x3b74bcf0	0.003734406
23	0x3d7ad05e	0.06123387
24	0x3d626a56	0.05527719
25	0xbd83a2bd	-0.06427524
26	0x3d08cd86	0.033399127
27	0x3d7156b0	0.058920562
28	0x3d0cae0f	0.034345683
29	0xbd9f438e	-0.07776557
30	0xbd3941a1	-0.045228604
31	0x3da830b7	0.082124166
32	0xbce0275a	-0.027362514
33	0xbd93a439	-0.07209057
34	0xbd64decf	-0.05587655
35	0xbd9c4537	-0.07630389
36	0x3d9308f5	0.07179443
37	0xbd31c528	-0.043400913
38	0xbd30795c	-0.043084487
39	0xbcde65b0	-0.027148098
40	0x3c97f224	0.018548079
41	0x3afefd25	0.0019454105
42	0x3c82cb0a	0.015965957
43	0xbd5c43ad	-0.05377548
44	0xbd77e6bf	-0.06052279
45	0xbca5e647	-0.020251406
46	0xbd9e292f	-0.07722699
47	0x3b28d310	0.0025760569
48	0xbd6761ab	-0.056489628
49	0xbd397f05	-0.04528715
50	0x3cf6a11d	0.030106122
51	0x3da474c9	0.080300875
52	0x3da6dfe9	0.08148176
53	0xbbebdfaf	-0.007198296
54	0xbdace5fe	-0.08442305
55	0xbda5bd63	-0.08092763
56	0xbd581616	-0.052755438
57	0xbcc9efcb	-0.024650475
58	0xbc68ac05	-0.014201169
59	0x3b3d17ea	0.0028853365
60	0x3ca392cc	0.01996746
61	0xbd991a1b	-0.07475682
62	0x3d229e12	0.03970153
63	0x3d253a16	0.0403386
64	0xbd886cf8	-0.06661409
65	0xbd9d757c	-0.07688424
66	0x3a27d8e4	0.00064028637
67	0xbd3beeae	-0.04588192
68	0x3d6ec672	0.05829472
69	0x3d9c6c3a	0.0763783
70	0xbd1dc74d	-0.038520146
71	0x3a1ca0e0	0.00059749
72	0xbda6218c	-0.08111867
73	0x3cd8ef41	0.026481273
74	0x3ca6af8b	0.020347377
75	0x3d585ede	0.052824847
76	0x3d600f09	0.05470184
77	0xbd184dc7	-0.03718355
78	0xbb53730e	-0.0032264623
79	0xbd412ed7	-0.04716381
80	0x3d21f4c6	0.039540075
81	0xbd198e29	-0.03748909
82	0x3b40bada	0.0029408247
83	0x3d939f02	0.07208063
84	0x3d1ca5cd	0.038244057
85	0x3d8892ec	0.06668648
86	0x3c53d926	0.01293019
87	0x3d464fa2	0.048415788
88	0x3d3d2fd8	0.046188205
89	0xbd811fde	-0.06304906
90	0x3da9956d	0.08280454
91	0xbd29d616	-0.041463934
92	0xbc8dd201	-0.017312052
93	0x3d8bc21a	0.06824131
94	0xbd616f59	-0.05503783
95	0xbd656510	-0.056004584
96	0x3cff2192	0.031143937
97	0x3c2e9f65	0.01065812
98	0x3b6a509c	0.0035753613
99	0x3c4dbae4	0.012556765
100	0xbca1e289	-0.01976134
101	0xbd2cf4be	-0.04222559
102	0xbcf2d7af	-0.029643862
103	0xbc56ff9a	-0.013122464
104	0x3d2f071c	0.04273139
105	0xbd22444a	-0.039615907
106	0xbd46f1bf	-0.04857039
107	0xbb6d39d8	-0.0036197808
108	0xbbc69398	-0.006060075
109	0x3d83fec2	0.064450756
110	0xbd7fa540	-0.062413454
111	0x3d6c5cf1	0.057705823
112	0x3c6ce05c	0.014457788
113	0x3d8c2b08	0.06844145
114	0x3d5f07b7	0.054450717
115	0x3d9f173a	0.07768102
116	0xbbe44fde	-0.0069675287
117	0xbc797eb2	-0.01522796
118	0xbd81d716	-0.063398525
119	0xbd742543	-0.059605848
120	0x3bd54d1e	0.006509437
121	0xbd485659	-0.048910473
122	0x3d997ccf	0.074945085
123	0xbd91fbf7	-0.071281366
124	0xbda3c597	-0.07996672
125	0xbd3630f6	-0.044480287
126	0x3da60306	0.081060454
127	0xbd6aecda	-0.057354786
128	0x3c016f4a	0.007900069
129	0x3c1a6e59	0.009425723
130	0xbb9fc6ab	-0.004875978
131	0xbcec0aff	-0.028813837
132	0xbd8807f2	-0.066421404
133	0xbd2eab56	-0.042643867
134	0xbbf4aee4	-0.0074671376
135	0x3d8d6185	0.06903366
136	0x3d7a659f	0.06113207
137	0xbd52570f	-0.051352557
138	0xbd15ee54	-0.03660424
139	0xbc517b1b	-0.012785698
140	0x3d05dfe5	0.032684226
141	0xbbee10ab	-0.0072651706
142	0xbda5d4c1	-0.0809722
143	0x3d7f277a	0.062293507
144	0xbd6f9d7a	-0.05849979
145	0x3ccfaf68	0.025352195
146	0xbd169a6a	-0.036768354
147	0xbd809d2e	-0.0627998
148	0xbd801932	-0.062548056
149	0xbd9dbdf4	-0.07702246
150	0xbd1f829a	-0.03894291
151	0x3d76b947	0.060235288
152	0x3d0f79be	0.03502821
153	0x3d05bf95	0.03265341
154	0x3dad8e4c	0.084744066
155	0x3b8da409	0.004322533
156	0x3d3eff3c	0.04663013
157	0x3c60d790	0.013723269
158	0xbc5ea4f6	-0.013589134
159	0x3caee536	0.02134953
160	0xbd0c7ed8	-0.034300655
161	0xbc102309	-0.0087974155
162	0x3d07b309	0.033129726
163	0xbd8e3364	-0.06943396
164	0x3c735c28	0.014853515
165	0xbcd0b7c3	-0.02547825
166	0x3c6fc1fb	0.014633651
167	0x3c3f6eee	0.011684163
168	0xbb95943b	-0.0045647896
169	0xbd619fee	-0.05508416
170	0xbc90005f	-0.017578302
171	0xbc691cb8	-0.0142280385
172	0x3cf85fb9	0.030319082
173	0x3d0e4a3d	0.034738768
174	0xbcfb12f5	-0.030648688
175	0x3ce8d269	0.028420644
176	0xbd9ee936	-0.07759325
177	0x3cf432d7	0.029809399
178	0x3d35c58f	0.04437786
179	0xbc9b2172	-0.018936846
180	0x3da10901	0.078630455
181	0x3d3bff00	0.045897484
182	0x3c9146eb	0.017734012
183	0xbda0f653	-0.078594826
184	0xbda34892	-0.07972826
185	0xbb80198e	-0.0039092964
186	0x3d95f8ad	0.07322822
187	0xbd887bb0	-0.066642165
188	0xbc256bfe	-0.010096548
189	0x3d763520	0.060109258
190	0x3ce2c5e2	0.027682249
191	0xbca35de4	-0.019942231
192	0x3da3f587	0.08005815
193	0x3da7dc5d	0.08196328
194	0xbda4c6fe	-0.08045767
195	0xbd3f9840	-0.046776056
196	0xbc75b3fd	-0.014996526
197	0xbd60f8c3	-0.054924738
198	0x3dadec8a	0.08492382
199	0xbda12035	-0.07867471
200	0x3c9da6f4	0.019244649
201	0x3d79bc3e	0.060970537
202	0xbd9e25d1	-0.07722057
203	0xbd3615e1	-0.04445446
204	0x3d51f512	0.051259108
205	0xbd69314f	-0.05693179
206	0x3d9ad16b	0.075594746
207	0x3d842dfa	0.06454082
208	0xbd8d2d89	-0.06893451
209	0x3d90ca34	0.07069817
210	0xbd6fef82	-0.05857802
211	0x3da8e04c	0.08245906
212	0x3da04bb5	0.0782694
213	0xbd09b5c7	-0.033620622
214	0x3d4a8ade	0.04944884
215	0xbd8d4748	-0.068983614
216	0x3cf6ad6c	0.03011199
217	0xbd648749	-0.05579308
218	0x3d42cf60	0.04756105
219	0x3d9e8da0	0.077418566
220	0x3d69a788	0.057044536
221	0x3d6fc271	0.058535043
222	0x3b0eea75	0.0021807228
223	0xbcfe3682	-0.03103185
224	0x3d053d36	0.03252908
225	0x3d846ff0	0.06466663
226	0xbc9f9cbf	-0.019483922
227	0x3d66a599	0.05631027
228	0xbb21da8a	-0.002469691
229	0x3a994ec8	0.0011696452
230	0x3d0873d1	0.033313576
231	0xbd824927	-0.06361609
232	0x3d9048de	0.07045148
233	0xbd94c145	-0.07263426
234	0x3d17a59a	0.037023164
235	0x3d23ec21	0.040020112
236	0xbd1043f0	-0.03522104
237	0x3c8032e0	0.01564926
238	0xbb1b5085	-0.0023699116
239	0x3c09eae8	0.008417822
240	0x3cadbfc7	0.02120961
241	0xbd15c940	-0.03656888
242	0xbc274813	-0.010210055
243	0x3d1e9c7f	0.038723465
244	0xbcd6fa10	-0.026242286
245	0xbd822c9d	-0.063561656
246	0xbd18ad16	-0.037274443
247	0x3d002890	0.031288683
248	0xbcd3c254	-0.025849499
249	0x3da26144	0.07928708
250	0x3d834366	0.064093396
251	0xbc8389ca	-0.016056914
252	0x3c5a4e88	0.013324387
253	0xbd0f75f8	-0.035024613
254	0x3c1f70bb	0.009731467
255	0x3d671751	0.05641872

gcs.0.relation_msg f4 [5, 8, 8, 8]
0	0xbdaa4bdf	-0.083152525
1	0xbd16b319	-0.036791895
2	0xbd842dfc	-0.06454083
3	0x3d1fc983	0.039010536
4	0xbd70a12a	-0.058747448
5	0xbda81e4c	-0.08208904
6	0xbd2b3f60	-0.041808486
7	0x3da5cf99	0.08096237
8	0x3d16fe11	0.03686339
9	0x3caa3140	0.020775437
10	0xbaccaf13	-0.0015616141
11	0x3d50a418	0.050937742
12	0x3d2bde74	0.041960195
13	0xbbf37e62	-0.0074308375
14	0xbda0118f	-0.07815849
15	0x3d08299c	0.033242807
16	0x3da086df	0.078382246
17	0xbd9ad405	-0.07559971
18	0xbc0ef6c9	-0.00872583
19	0x3c6a72b2	0.014309572
20	0xbcbfabd8	-0.023397371
21	0x3c6c62ee	0.014427884
22	0xbd9cb801	-0.076522835
23	0x3daae52c	0.08344492
24	0xbcfafce6	-0.03063817
25	0x3d831320	0.06400132
26	0x3d1804f9	0.037114117
27	0xbd8166d5	-0.06318442
28	0xbda10f07	-0.07864194
29	0xbd27d6f7	-0.04097649
30	0xbd3edd43	-0.04659773
31	0x3c7127b2	0.014718937
32	0x3b5b548c	0.0033467142
33	0xbd26818f	-0.0406509
34	0x3d9afd7f	0.07567882
35	0xbd8276a9	-0.06370289
36	0xbb839a01	-0.0040161614
37	0x3c24a05f	0.010048001
38	0x3c869f9f	0.016433535
39	0x3d68bcde	0.056820743
40	0xbd9b93cb	-0.07596549
41	0xbd7def7b	-0.061995964
42	0x3d70ceca	0.05879096
43	0x3d777adf	0.060419913
44	0xba49d695	-0.0007699517
45	0x3d9980cb	0.074952684
46	0x3dab4b4c	0.08363971
47	0x3c2e573b	0.010640915
48	0xbd9647d7	-0.07337921
49	0xbc1b7ed2	-0.009490686
50	0x3ba121df	0.004917368
51	0x3d87b4e7	0.06626301
52	0xbd249cbd	-0.04018854
53	0x3d385dac	0.045011207
54	0xbb73b44a	-0.0037186318
55	0xbd765c46	-0.060146593
56	0xbbaae1b0	-0.0052148923
57	0x3cf314c1	0.029672982
58	0x3ccc1cdf	0.02491611
59	0x3ca011fe	0.01953983
60	0x3d95f900	0.073228836
61	0xba6e6a33	-0.00090948044
62	0xbda64e43	-0.08120396
63	0x3d98418b	0.07434376
64	0x3ce3766e	0.027766433
65	0x3d8e6d84	0.06954482
66	0x3d90c47d	0.07068727
67	0x3da52bf4	0.08065024
68	0x3d860e2f	0.06545674
69	0xba6c963d	-0.0009025073
70	0x3d979ff4	0.074035555
71	0xbd743ca4	-0.059628144
72	0x3d917a84	0.07103446
73	0xbd153aad	-0.03643291
74	0xbbb4c919	-0.005517137
75	0x3c91aa27	0.01778133
76	0xbd479145	-0.048722524
77	0x3d96c5d2	0.0736195
78	0x3d21b9f8	0.039483994
79	0x3afbd452	0.0019213057
80	0x3b33dfb8	0.002744658
81	0xbd1b6520	-0.037938237
82	0x3d9dbc69	0.07701952
83	0xbd033833	-0.032036018
84	0xbd56fabe	-0.05248522
85	0x3cedc3ce	0.029024031
86	0xbcb6db94	-0.0223215
87	0x3d28c9ac	0.041207954
88	0xbc8d6ec8	-0.017264739
89	0x3bc81c10	0.006106861
90	0xbc01c086	-0.007919436
91	0x3d4e47ad	0.050361324
92	0x3c575570	0.0131429285
93	0x3b6e7b64	0.0036389465
94	0xbd190222	-0.03735555
95	0x3d657006	0.056015037
96	0xbca35a21	-0.019940438
97	0xbc795f5d	-0.01522049
98	0xbd8cff0a	-0.06884582
99	0xbaa872b5	-0.0012851568
100	0xbd9b9184	-0.07596114
101	0x3d91525d	0.07095788
102	0x3d9f6d88	0.07784563
103	0x3d8b7d3b	0.06810995
104	0x3d9e7cc3	0.0773864
105	0xbd61fa42	-0.055170305
106	0x3c6bb57e	0.014386533
107	0x3c7ec5a4	0.015550051
108	0xbc3b19ca	-0.011419723
109	0xbd7270ee	-0.05918973
110	0xbd175a76	-0.036951505
111	0x3d629236	0.05531522
112	0xbd2920b1	-0.041290943
113	0x3c1106b2	0.008851694
114	0xbd10dab7	-0.035364833
115	0x3d81ca61	0.06337429
116	0x3d98f89e	0.07469295
117	0x3ba9f1c9	0.0051862937
118	0x3c2a46c1	0.010392846
119	0x3d869906	0.06572156
120	0x3d8288da	0.063737586
121	0xbd086c32	-0.033306308
122	0x3d5b9e07	0.053617503
123	0xbd712208	-0.058870345
124	0xbd9c786c	-0.07640156
125	0xbda06947	-0.0783258
126	0xba01fad9	-0.00049583387
127	0xbc99a5a0	-0.018755734
128	0x3ccd47b9	0.025058614
129	0xbc9a5c3a	-0.018842805
130	0x3d774f98	0.06037864
131	0x3c1ff051	0.009761886
132	0x3d65bbd5	0.056087334
133	0x3dae9fbe	0.08526562
134	0xbd8cbbfa	-0.06871791
135	0x3d9ff3ac	0.078101486
136	0x3cc0054f	0.023440031
137	0x3da89659	0.082318015
138	0x3d87b391	0.066260464
139	0x3d9c9362	0.076452985
140	0x3c31cd5e	0.010852186
141	0xbda83460	-0.08213115
142	0x3d34681a	0.04404459
143	0xbd8f41f1	-0.06994999
144	0x3d637225	0.05552878
145	0xbcfdbc36	-0.030973535
146	0xbc36435b	-0.011124457
147	0x3cc35774	0.023845412
148	0xbc25d96f	-0.010122641
149	0x3d803bb3	0.06261387
150	0x3cc1439f	0.023591815
151	0xba617380	-0.00086002797
152	0x3d88291e	0.066484675
153	0xbd8f9103	-0.07010081
154	0xbd1ce10a	-0.03830055
155	0xbd2a0fa6	-0.04151883
156	0x3d479a67	0.048731234
157	0xbcb22be8	-0.021749452
158	0x3c975c16	0.018476527
159	0xbd4815b6	-0.04884883
160	0xbd9421af	-0.07232987
161	0xbd299cfa	-0.04140947
162	0x3d944cee	0.07241236
163	0xbd8bed5c	-0.06832382
164	0x3cacd4b6	0.021097522
165	0xbb36c0bd	-0.0027885877
166	0xbb35aab4	-0.0027720155
167	0xbd6e7355	-0.058215458
168	0x3da949a5	0.08266
169	0x3d8f632e	0.07001339
170	0xbbd2c608	-0.0064322986
171	0xbd0dd6e2	-0.034628756
172	0x3d9768f8	0.07393068
173	0x3d2f9aec	0.042872354
174	0xbc2da4d0	-0.010598376
175	0x3cb8169d	0.02247172
176	0x3d84b54f	0.06479894
177	0xbd588033	-0.052856635
178	0x3d798df5	0.060926396
179	0x3d138b86	0.03602173
180	0x3d32e71d	0.043677438
181	0x3d8f6cc4	0.07003167
182	0x3c5b9ab6	0.013403585
183	0xbc7b9318	-0.015354894
184	0x3d6d11c7	0.057878282
185	0x3c4b878c	0.012422454
186	0x3d33ab88	0.043864757
187	0x3d61f568	0.05516568
188	0xbd371da7	-0.044706013
189	0x3d55244f	0.05203658
190	0x3dad9651	0.08475936
191	0xbd0b5e15	-0.03402527
192	0x3d1bf9e4	0.03808011
193	0xbc887bf8	-0.016660675
194	0xbd8020b4	-0.062562376
195	0x3da156d8	0.07877892
196	0xbd8596bd	-0.06522892
197	0x3d4971d7	0.04918083
198	0x3cef406e	0.029205527
199	0xbdaa5530	-0.083170295
200	0x3c71010c	0.014709722
201	0xbbc145d0	-0.005898215
202	0x3d28bf1a	0.041197874
203	0xbcc6e22b	-0.024277767
204	0x3c2749c6	0.01021046
205	0x3d6f94b5	0.058491427
206	0x3d4f883f	0.050667044
207	0x3b686428	0.0035460088
208	0xbd7cfb07	-0.061762836
209	0x3d1bb7c2	0.038017042
210	0xbcecb745	-0.028895983
211	0xbd2a19b1	-0.041528407
212	0x3d5dfddb	0.054197174
213	0x3d43a15d	0.04776131
214	0x3da582da	0.080815986
215	0x3c82d881	0.015972378
216	0x3d30dd17	0.043179598
217	0xbd99a40c	-0.075019926
218	0xbda8d709	-0.0824414
219	0xbbfceb93	-0.0077185123
220	0xbd5ae7d9	-0.053443763
221	0x3cf1622e	0.029465761
222	0xbc3d87fc	-0.011568066
223	0xbc8a11ec	-0.016854249
224	0xbd141cc2	-0.036160238
225	0xbbe328d0	-0.0069323555
226	0xbd8cba21	-0.06871439
227	0x3d476ded	0.048688818
228	0xbbcbe5e6	-0.0062224744
229	0x3d9e858c	0.07740316
230	0x3d47ff97	0.048827734
231	0xbd97097c	-0.07374856
232	0x3d6a098a	0.057138003
233	0x3d622d73	0.055219125
234	0xbc40da86	-0.01177085
235	0x3d549ddc	0.05190836
236	0x3d2b8f36	0.041884623
237	0xbd9b7055	-0.07589785
238	0xbdabd792	-0.08390726
239	0xbda61da8	-0.08111125
240	0x3da3771d	0.079817034
241	0x3d14c4e6	0.03632059
242	0xbc5aae6a	-0.013347248
243	0xbc2bfcdb	-0.010497297
244	0xbd3b6b09	-0.045756374
245	0xbd07c7c2	-0.03314949
246	0xbdab327a	-0.08359237
247	0x3c4bf92d	0.012449545
248	0xbc29f914	-0.010374326
249	0xbda127fd	-0.07868955
250	0x3d548098	0.05188045
251	0x3c00767b	0.007840748
252	0xbcc219ed	-0.023694003
253	0xbd3c8fab	-0.04603545
254	0x3da60a4d	0.081074335
255	0xbcb403db	-0.021974495

gcs.0.k_linears.0.weight f4 [64, 64]
0	0xbc98eac8	-0.01866664
1	0xbdf1658e	-0.11786948
2	0xbdf31c48	-0.118706286
3	0x3dbf804f	0.09350645
4	0x3d971305	0.073766746
5	0xbc7751bd	-0.0150951715
6	0xbd50d7c7	-0.05098703
7	0xbd97033f	-0.07373666
8	0xbd887415	-0.06662766
9	0xbd054952	-0.032540627
10	0x3dc5f105	0.096651115
11	0x3d1f6ff6	0.038925134
12	0xbd3e4e7b	-0.046461564
13	0xbd7a6dc9	-0.061139856
14	0x3d63e48d	0.055637885
15	0xbdd56d85	-0.1042128
16	0x3dd823f1	0.1055373
17	0x3d76d5c2	0.06026245
18	0x3d847b5b	0.06468841
19	0x3d8c54b3	0.068520926
20	0x3d5a5658	0.053305
21	0xb9a51517	-0.00031486966
22	0x3d693e6f	0.056944307
23	0x3dcc3c7d	0.09972475
24	0xbdb6504e	-0.08902036
25	0xbd721520	-0.059102178
26	0x3d5bf894	0.05370386
27	0xbdcf5ae6	-0.101247594
28	0x3daa2891	0.08308519
29	0x3d08b687	0.033377197
30	0xbc99b39e	-0.018762406
31	0x3ccfdf48	0.025375023
32	0xbc872b92	-0.016500268
33	0xbd4aaea3	-0.049482953
34	0x3dd810e5	0.105500974
35	0x3decdf5b	0.11566039
36	0x3d8c5a28	0.068531334
37	0xbda101bc	-0.07861659
38	0xbbee9935	-0.0072814473
39	0xbdbbd627	-0.09171706
40	0xbccc2e9a	-0.024924565
41	0x3d6da87a	0.058022
42	0xbc8c4e8f	-0.017127303
43	0xbd828b3f	-0.06374215
44	0x3db8722f	0.09006154
45	0xbd9eb4f0	-0.07749355
46	0xbced9c2a	-0.029005129
47	0x3d72bf5f	0.059264537
48	0x3d84bbf4	0.06481162
49	0x3cdc28e6	0.02687497
50	0x3c5fb6dc	0.013654437
51	0xbcd2c0c4	-0.025726683
52	0xbd0d5d0a	-0.034512557
53	0xbd8de171	-0.06927765
54	0x3d3b9c48	0.04580334
55	0xbabd4f50	-0.0014443193
56	0xbca32965	-0.0199172
57	0xbd5ac7d2	-0.05341322
58	0xbda14894	-0.07875171
59	0x3d20703d	0.03916954
60	0xbd17431d	-0.03692924
61	0xbdb475f2	-0.08811559
62	0xbc9abc71	-0.018888684
63	0xbb1e0966	-0.0024114489
64	0x3de0c675	0.10975353
65	0xbd876b15	-0.06612221
66	0x3dbf68a0	0.093461275
67	0x3db8ad81	0.09017468
68	0x3d2a2d8e	0.04154735
69	0xbdef9239	-0.11697812
70	0x3ddccc4f	0.10781156
71	0x3da68d8b	0.08132466
72	0xbd50d04c	-0.050979897
73	0xbcee622f	-0.029099552
74	0xbdd45d31	-0.10369337
75	0x3cdb6130	0.026779741
76	0x38fc8ff4	0.0001204311
77	0x3d6d8ac3	0.05799366
78	0xbdf19fc4	-0.11798051
79	0x3dee7ecb	0.116452776
80	0x3d8a6414	0.0675737
81	0x3db835d4	0.08994642
82	0x3d18a007	0.03726199
83	0x3dda5162	0.10660054
84	0xbdcf154d	-0.10111485
85	0x3d30f339	0.043200705
86	0xbdea72f8	-0.1144771
87	0xbd9346ff	-0.07191276
88	0xbd9cea86	-0.07661919
89	0x3daefac3	0.08543923
90	0x3cb48a29	0.022038536
91	0xbdad005a	-0.08447333
92	0xbdcfa18c	-0.101382345
93	0x3d9e1150	0.07718146
94	0x3db707c3	0.08937027
95	0xbd1a9d1d	-0.03774749
96	0xbd6a03a9	-0.057132397
97	0x3dc0f4fc	0.09421727
98	0xbd3808ea	-0.044930376
99	0xbd92caef	-0.07167613
100	0x3d174482	0.03693057
101	0xbbcdf388	-0.0062851347
102	0x3d980f21	0.074247606
103	0xbd94353e	-0.07236718
104	0x3cc09546	0.02350868
105	0x3d263c04	0.04058458
106	0xbc13988a	-0.009008536
107	0xbd49d04a	-0.049270906
108	0x3df4383f	0.119247906
109	0xbd820023	-0.06347682
110	0x3d01fd1a	0.031735517
111	0x3d111be4	0.03542699
112	0x3ca4904d	0.02008834
113	0x3de1399a	0.10997315
114	0xbc3cb364	-0.011517379
115	0x3da4246a	0.08014758
116	0x3d6cf550	0.057851136
117	0x3dc8d2da	0.09805842
118	0xbd96c450	-0.073616624
119	0xbd971b0c	-0.07378206
120	0x3d8054ce	0.06266175
121	0x3d88a1af	0.06671464
122	0x3dc1a735	0.0945572
123	0x3d636dc8	0.055524617
124	0xbdc5b79e	-0.09654163
125	0xbcc600c9	-0.024170296
126	0x3dbcb2d4	0.09213796
127	0xbdf947be	-0.12171887
128	0xbab5ee40	-0.0013880208
129	0xbcf1a3ae	-0.029496994
130	0xbcff06a9	-0.031131105
131	0xbdb48e3f	-0.08816194
132	0xbd839550	-0.064249635
133	0xbdf26ca5	-0.118371285
134	0x3d44e0b7	0.048065867
135	0xbd994c02	-0.074852005
136	0xbd648b75	-0.05579706
137	0xbd2ea1d7	-0.04263481
138	0xbd8989eb	-0.06715759
139	0x3d1cb91e	0.03826248
140	0x3dc66ea1	0.096890695
141	0x3dd362bb	0.10321566
142	0x3df7a8bd	0.12092731
143	0xbd1cc4ee	-0.038273744
144	0xbbd1618e	-0.0063898033
145	0xbd9003c2	-0.07031967
146	0x3bc696c7	0.0060604545
147	0xbd24e4b5	-0.040257175
148	0xbdc4aa1b	-0.096027575
149	0xbdf02919	-0.11726589
150	0x3df9170f	0.12162601
151	0x3d69ea93	0.057108473
152	0x3dd9eb80	0.10640621
153	0xb7ef272f	-2.8509266e-05
154	0xbde5b673	-0.1121644
155	0xbd447678	-0.047964543
156	0xbde5619f	-0.1120026
157	0x3d81a309	0.063299246
158	0xbda63170	-0.08114898
159	0x3df33058	0.11874455
160	0x3d208da4	0.03919758
161	0x3dc05ace	0.093923196
162	0x3d25d586	0.040486835
163	0xbbc5ff1b	-0.006042374
164	0x3d446f9c	0.047958
165	0x3d1dee96	0.03855761
166	0x3d46e9b2	0.048562713
167	0xbd69b840	-0.05706048
168	0xbc764014	-0.015029926
169	0xbd4c4e25	-0.049879212
170	0x3d0a2b67	0.033732798
171	0xbde6bfaa	-0.11267026
172	0xbc9ab958	-0.018887207
173	0xbc10cee0	-0.008838385
174	0x3dc664c3	0.096871875
175	0x3d92ac31	0.07161749
176	0xbd337701	-0.043814663
177	0x3d923757	0.071394615
178	0xbd1adf38	-0.037810534
179	0x3dc2e8ea	0.09517081
180	0xbd42eff8	-0.047592133
181	0x3de328d2	0.1109177
182	0xbd001b17	-0.031275835
183	0xbd939cba	-0.072076276
184	0xbdd4d63a	-0.10392423
185	0x3ba72bd8	0.005101662
186	0xbdb77664	-0.08958128
187	0xbdc49633	-0.09598961
188	0xbbd7d9ce	-0.0065872436
189	0xbd02cb15	-0.031931955
190	0xbdcbe8aa	-0.099564865
191	0xbc0374e0	-0.008023471
192	0xbdb314ca	-0.087441996
193	0xbdf948b5	-0.12172071
194	0x3ab869d4	0.0014069625
195	0x3dd79e40	0.10528231
196	0xbd27ac4b	-0.040935796
197	0xbcf0e8fb	-0.029407969
198	0x3dd7ed71	0.10543335
199	0x3da4f812	0.08055128
200	0x3d928080	0.07153416
201	0xbc717372	-0.014736997
202	0x3c5ee705	0.013604884
203	0xbd360f53	-0.044448208
204	0xbda3aa7f	-0.07991504
205	0xbdf7ecd4	-0.12105718
206	0x3dfd7b74	0.123770624
207	0x3d1dacb5	0.038494784
208	0x3dacaa87	0.08430963
209	0xbd0f627e	-0.03500604
210	0xbccbc7d1	-0.024875553
211	0xbdc30576	-0.09522526
212	0xbcf9f4fb	-0.030512324
213	0x3d9295d2	0.07157482
214	0x3d50dcb1	0.050991718
215	0x3dead082	0.11465551
216	0x3dab62c5	0.08368448
217	0x3c340a77	0.010988823
218	0xbd96a463	-0.07355573
219	0xbdab1ce4	-0.0835512
220	0xbc7fec7f	-0.01562035
221	0x3dc66030	0.09686315
222	0x3df9a37a	0.12189384
223	0xbdb8368a	-0.089947775
224	0xbdc42d01	-0.09578896
225	0x3cc98f61	0.024604501
226	0x3d3354fa	0.04378221
227	0xbb75cd48	-0.003750639
228	0xbd75fa46	-0.060053132
229	0xba0a1288	-0.00052670436
230	0xbd96ae9d	-0.073575236
231	0x3d47a20f	0.048738535
232	0xbdc629cf	-0.09675943
233	0x3cf73492	0.030176435
234	0x3c9c52d2	0.01908246
235	0x3d7a1bcd	0.06106167
236	0xbd2fb958	-0.042901367
237	0x3d146ae5	0.036234755
238	0x3cc68bc8	0.024236575
239	0xbc1776d6	-0.009244641
240	0x3d22e992	0.03977353
241	0xbdb22021	-0.08697534
242	0x3ce9d774	0.028545119
243	0xbdfe9d22	-0.124323145
244	0xbc6afe8d	-0.014342916
245	0x3c7d1e12	0.015449064
246	0x3d8b6796	0.06806867
247	0x3d347477	0.044056382
248	0xbdb36297	-0.08759039
249	0xbdc3a39e	-0.09552692
250	0x3d38fe5e	0.04516446
251	0xbdb7c287	-0.0897265
252	0xbd39d752	-0.04537136
253	0xbcee4bfc	-0.029088967
254	0x3d84d27f	0.064854614
255	0x3d54b9e0	0.051935077

gcs.0.k_linears.0.bias f4 [64]
0	0xbdd07d95	-0.10180203
1	0x3dd17c95	0.1022884
2	0x3de49760	0.11161685
3	0xbd1b139f	-0.03786051
4	0xbddad847	-0.10685783
5	0xbd9beb4b	-0.07613238
6	0x3deec0a6	0.116578385
7	0x3d8a43c6	0.06751208
8	0xbda2928d	-0.079381086
9	0x3bef9901	0.0073119407
10	0x3dab912b	0.08377298
11	0xbc187cc8	-0.009307094
12	0x3de4639c	0.111518115
13	0x3cdc2f5d	0.026878053
14	0x3dcea5a4	0.10090187
15	0xbdc24e19	-0.09487552
16	0x3ddadb2f	0.10686337
17	0xbdb70e9e	-0.08938335
18	0xbafcf7bc	-0.0019299905
19	0x3dfe800f	0.12426769
20	0xbc131138	-0.008976273
21	0xbd11c15d	-0.035584796
22	0x3d516ad0	0.051127255
23	0xbd7b6396	-0.06137427
24	0xbcedf2bc	-0.029046409
25	0xbdbe45ca	-0.09290655
26	0xbd9e62b4	-0.0773367
27	0x3d97d4a7	0.07413607
28	0xbd5ccb8a	-0.053905047
29	0xbd08214a	-0.033234872
30	0x3d0f23c8	0.034946233
31	0x3d8676c7	0.06565624
32	0x3d62c574	0.055364087
33	0x3dc8615e	0.09784196
34	0xbcded638	-0.027201757
35	0xbd85bedb	-0.065305434
36	0xbbdfdb62	-0.0068315724
37	0xbd03db83	-0.032191765
38	0x3db75500	0.08951759
39	0xbd2e8c4f	-0.042614277
40	0xbd92dcc0	-0.07171011
41	0x3dbea97c	0.0930967
42	0x3d05a0b9	0.03262398
43	0xbdb313d8	-0.08744019
44	0xbc30f8a8	-0.010801472
45	0x3dc13a64	0.09434965
46	0xbd8f6010	-0.07000744
47	0x3d4908a4	0.049080506
48	0x3d954125	0.07287816
49	0xbdb6f846	-0.08934073
50	0x3dfd8482	0.123787895
51	0xbdd118fd	-0.10209844
52	0xbce1454d	-0.027498866
53	0x3d45a793	0.048255514
54	0xbd80ed08	-0.0629521
55	0x3d24d9b9	0.0402467
56	0x3d8d4fc9	0.068999834
57	0x3cdd3186	0.027001154
58	0xbd6dbb41	-0.058039907
59	0xbd64a45d	-0.05582081
60	0xbdfdf558	-0.12400311
61	0xbd4fd2da	-0.050738193
62	0x3c2bc5a2	0.010484131
63	0x3d9a748b	0.0754176

gcs.0.q_linears.0.weight f4 [64, 64]
0	0xbd967639	-0.07346768
1	0x3d65bb9f	0.056087133
2	0x3dbc5632	0.09196128
3	0x3d08288a	0.033241786
4	0x3bac3428	0.005255241
5	0x3baa1795	0.0051907995
6	0xbdd60edb	-0.10452052
7	0xbb19c66c	-0.0023464216
8	0x3d8b99f9	0.06816477
9	0xbd974a6d	-0.073872425
10	0xbb5642e3	-0.0032693676
11	0x3de24c1b	0.11049672
12	0xbc9373fe	-0.017999645
13	0x3c42c1e7	0.01188705
14	0x3d6fa17f	0.058503624
15	0xbdcbc5fb	-0.09949871
16	0xbdb94c46	-0.09047751
17	0x3db13025	0.08651761
18	0xbca0db97	-0.019635959
19	0xbd8aa07e	-0.06768893
20	0xbd71edeb	-0.059064787
21	0xbdca3234	-0.09872857
22	0xbddfd4a9	-0.109292336
23	0x3d98f242	0.07468082
24	0x3da88ce8	0.08230001
25	0x3c201fb1	0.009773181
26	0xbdcdd34e	-0.10050069
27	0xbd60d1f8	-0.05488774
28	0x3dab0a98	0.0835163
29	0xbdd52a85	-0.104085006
30	0xbd4ca792	-0.049964495
31	0x3d403398	0.046924204
32	0x3bc6c62d	0.006066105
33	0xbd5c01d3	-0.053712677
34	0x3cfe11af	0.031014292
35	0xbdef2a25	-0.1167796
36	0xbd2f79f8	-0.042840928
37	0xbda6922b	-0.08133348
38	0xbde6aa26	-0.11262922
39	0x3d5da8bd	0.054116
40	0xbd412ba0	-0.047160745
41	0xbc83f6f8	-0.016108975
42	0xbdeac96b	-0.11464199
43	0xbdd140a4	-0.10217407
44	0x3ca2a69a	0.019854832
45	0x3dba8287	0.09106927
46	0x3dba1d8d	0.090876676
47	0x3db91678	0.09037489
48	0xbddee34f	-0.108831994
49	0x3d0d6a73	0.034525346
50	0x3d8bc9f5	0.068256296
51	0x3d50c1c6	0.050966047
52	0xbd7910da	-0.060807087
53	0xbd85e5bf	-0.06537961
54	0xbb9fbaef	-0.004874579
55	0x3dd74f8f	0.105132215
56	0x3d8dbeec	0.06921181
57	0xbb441a38	-0.0029922854
58	0x3d8985b1	0.06714953
59	0x3d7f0211	0.06225783
60	0x3d8f3dcd	0.069942094
61	0xbba6ae81	-0.0050867205
62	0x3dfced3d	0.12349937
63	0xbd0239bd	-0.031793345
64	0xbd7fb65c	-0.06242977
65	0xbdbf738e	-0.09348212
66	0xbd9ec0bc	-0.07751605
67	0xbdb4befa	-0.088254884
68	0x3dce6975	0.10078708
69	0x3c7cfbdb	0.015440906
70	0xbda0b9bb	-0.07847925
71	0x3dd67bbb	0.104728185
72	0xbde937b3	-0.11387577
73	0xbba6d4ad	-0.005091271
74	0x3d6d8081	0.05798388
75	0x3d5c53b2	0.053790756
76	0xbdebf738	-0.115217626
77	0xbdb845db	-0.08997699
78	0x3d6cf9f0	0.057855546
79	0x3cdf4aa3	0.02725727
80	0x3ddee659	0.10883779
81	0xbd91320d	-0.070896246
82	0x3db3eaf7	0.0878505
83	0x3dab5a26	0.08366804
84	0xbb5816a2	-0.0032972475
85	0xbd7e2538	-0.062047213
86	0x3dc93241	0.09824038
87	0x3dd3beaf	0.103391044
88	0xbd965578	-0.073405206
89	0xbdebf9a6	-0.11522226
90	0x3d334985	0.043771286
91	0x3dc2cb62	0.095114484
92	0x3dbcd104	0.09219554
93	0x3ddba879	0.10725493
94	0xbdad7d04	-0.084711105
95	0xbdb825f3	-0.08991613
96	0xbc96d4e5	-0.018412063
97	0xbc53bdd2	-0.012923675
98	0xbc800f81	-0.015632393
99	0xbd9e93bb	-0.07743021
100	0x3de1c610	0.110241055
101	0xbcaf4d10	-0.021399051
102	0xbb998156	-0.0046846075
103	0xbdc543fb	-0.09632107
104	0x3d93fbfb	0.07225796
105	0x3d8e4dc3	0.069484256
106	0x3d1e7b2c	0.038691685
107	0x3d856ce1	0.06514908
108	0x3d995733	0.07487335
109	0x3c8e592f	0.01737651
110	0xbbd32337	-0.006443407
111	0xbd587637	-0.052847113
112	0x3dbb812d	0.09155498
113	0xbd1a273b	-0.03763507
114	0x3dbbed4d	0.09176121
115	0x3d89f893	0.06736865
116	0xbd45c5ae	-0.048284225
117	0xbd46d6f5	-0.048544843
118	0x3dc9de8f	0.09856903
119	0x3c5770b9	0.013149434
120	0xbd8d4019	-0.06896991
121	0xbd824dc3	-0.06362488
122	0x3c9d0797	0.019168658
123	0xbd42eb25	-0.047587533
124	0xbcda0f2b	-0.02661856
125	0xbdfb5ba0	-0.122733355
126	0x3d7408a0	0.059578538
127	0x3da53182	0.080660835
128	0x3c266fad	0.0101584615
129	0x3dee3530	0.116312385
130	0xbd04b339	-0.032397483
131	0xbd7b26d2	-0.06131632
132	0xbd0c77a5	-0.03429379
133	0xbd93c861	-0.072159536
134	0x3d9f4d25	0.07778386
135	0x3df8e003	0.12152102
136	0x3d638ed4	0.055556133
137	0xbddb465b	-0.107067786
138	0xbdb8c592	-0.090220585
139	0xbd37b1fb	-0.04484747
140	0xbdfab782	-0.122420326
141	0x3dabe4f6	0.0839328
142	0x3de25316	0.11051004
143	0x3d7bd702	0.061484344
144	0xbd875540	-0.06608057
145	0x3db28653	0.087170266
146	0x3d3864c4	0.045017973
147	0x3cfcbe15	0.030852357
148	0xbd872383	-0.0659857
149	0xbd8cad02	-0.06868936
150	0xbb99b7d2	-0.0046911025
151	0x3dbae1da	0.09125109
152	0xbd2a1696	-0.041525446
153	0xbd57fd8d	-0.05273204
154	0xbd07de02	-0.033170708
155	0x3d1b0bb3	0.037852954
156	0x3d5955a6	0.053060196
157	0xbda5f2eb	-0.081029736
158	0x3cc8aedf	0.024497448
159	0xbd9b1e4a	-0.075741366
160	0xbdd20eed	-0.10256753
161	0xbd11ac13	-0.035564493
162	0xbd3b2041	-0.045685057
163	0x3de3457e	0.11097239
164	0x3bd11f43	0.0063819005
165	0x3c39ec59	0.011347854
166	0xbdd702b3	-0.10498562
167	0x3d1aa04e	0.037750535
168	0xbc02af9b	-0.007976438
169	0x3cf7b915	0.030239621
170	0xbc05dcd9	-0.00817033
171	0xb8a732fe	-7.9726786e-05
172	0x3de6b57f	0.112650864
173	0xbdc16560	-0.09443164
174	0xbddfbdbe	-0.10924862
175	0x3d03ae40	0.0321486
176	0xbcd0e7a4	-0.02550108
177	0xbc272257	-0.010201058
178	0xbdae6a4a	-0.08516367
179	0x3d8cf332	0.06882323
180	0xbd317e0e	-0.043333106
181	0xbcabcb2c	-0.020970903
182	0xbc33de5f	-0.01097831
183	0x3c53491a	0.012895847
184	0xbd543e70	-0.051817358
185	0x3c20d149	0.0098155225
186	0xbbbb38c3	-0.0057135536
187	0xbdfa231f	-0.1221373
188	0x3d4c1f1a	0.04983435
189	0xbdc06720	-0.093946695
190	0xb9ed144e	-0.0004521929
191	0x3df8aa62	0.12141873
192	0x3dfd63e2	0.12372567
193	0x3def03ad	0.11670623
194	0xbce2bb0f	-0.027677087
195	0xbda271b2	-0.07931842
196	0x3df7a7f7	0.120925836
197	0xbda0f565	-0.07859305
198	0xbdeaa35f	-0.11456942
199	0xbdb0bebf	-0.08630132
200	0xbda8bb12	-0.08238806
201	0x3d5103ec	0.05102913
202	0xbd4ee059	-0.050506923
203	0xbde4fc02	-0.11180879
204	0xbcd2d7e3	-0.025737708
205	0x3d547324	0.05186762
206	0xbd20b162	-0.039231665
207	0x3d78911e	0.06068527
208	0x3dea5cf0	0.11443508
209	0x3d702120	0.05862534
210	0x3cde0655	0.027102629
211	0x3d26f735	0.0407631
212	0xbdc0b34b	-0.094091974
213	0xbde8719f	-0.113497965
214	0xbdc643e2	-0.09680916
215	0xbdf7711d	-0.120821215
216	0xbdd74e6e	-0.10513006
217	0x3d3c098b	0.04590754
218	0x3c434145	0.011917417
219	0xbdb25ff2	-0.08709706
220	0x3de297bd	0.11064098
221	0xbdd9c384	-0.10632995
222	0x3de4ae59	0.11166067
223	0xbd80955d	-0.06278489
224	0xbdfa08b6	-0.12208693
225	0x3c9bccdd	0.019018585
226	0x3d736d03	0.059430134
227	0x3ca0bad9	0.019620346
228	0xbcb06649	-0.021533148
229	0x3a52a5e2	0.0008035583
230	0x3dc2cc7b	0.09511658
231	0xbd8f450b	-0.06995591
232	0x3dc1d117	0.09463709
233	0xbd683cad	-0.05669849
234	0xbd7bc399	-0.061465833
235	0x3d67149f	0.05641615
236	0x3d8f8a8f	0.0700885
237	0x3ddda7b0	0.108229995
238	0xbdb1a4e8	-0.086740315
239	0xbdc6db78	-0.09709829
240	0x3de40574	0.111338526
241	0x3d441c31	0.047878448
242	0xbd85e915	-0.065385975
243	0xbd5bdf42	-0.053679712
244	0x3dc7af0b	0.09750184
245	0x3b08daf8	0.0020882469
246	0x3db03e26	0.08605604
247	0xbd537572	-0.051625676
248	0x3bf4bf33	0.007469082
249	0x3da33f49	0.07971055
250	0xbdbec351	-0.093145974
251	0xbd74a8f5	-0.059731442
252	0xbddb2fd1	-0.1070248
253	0xbdce9882	-0.10087682
254	0x3dfea463	0.12433698
255	0xbd6756f0	-0.056479394

gcs.0.q_linears.0.bias f4 [64]
0	0xbdc73122	-0.09726168
1	0xbd974fa8	-0.0738824
2	0x3db6cb3f	0.08925485
3	0x3cdc4fa1	0.026893439
4	0x3c50dea7	0.012748397
5	0x3d96151d	0.07328246
6	0xbd94c612	-0.072643414
7	0xbdd9e5a8	-0.106395066
8	0x3cc565a6	0.024096321
9	0xbd95b0e1	-0.073091276
10	0xbd8066d2	-0.062696114
11	0x3c570edd	0.013126102
12	0xbd39413e	-0.045228235
13	0x3de38331	0.11109007
14	0x3d4825de	0.048864238
15	0x3dde9ba4	0.1086953
16	0x3d193cb6	0.037411414
17	0x3dbf24cc	0.0933319
18	0xbd412701	-0.047156338
19	0x3d5de349	0.054171834
20	0x3d959767	0.07304268
21	0xbd7158a8	-0.05892244
22	0x3dc0a609	0.09406669
23	0x3cc99e5b	0.024611643
24	0xbd5feeb1	-0.054670993
25	0xbdceaa44	-0.10091069
26	0x3d1ff757	0.03905424
27	0x3df1be7e	0.118039116
28	0xbdc68954	-0.09694162
29	0xbc947da0	-0.018126309
30	0x3dd46ae3	0.103719495
31	0x3d527453	0.051380467
32	0x36c3d150	5.83582e-06
33	0xbc96b648	-0.018397465
34	0xbd326879	-0.043556664
35	0xbbeab663	-0.0071628555
36	0x3dfb0cc1	0.12258292
37	0x3b8280bf	0.003982633
38	0xbd5b455a	-0.053532936
39	0x3dfaa010	0.12237561
40	0xbdfb0b19	-0.12257976
41	0x3d901a5e	0.07036279
42	0xbb5454a0	-0.0032399073
43	0x3d3f2bb4	0.046672538
44	0xbd2e706e	-0.04258769
45	0xbd68210f	-0.056672152
46	0xbd17ddf7	-0.037076917
47	0x3d8e2ea5	0.069424905
48	0xbccc5b94	-0.024946012
49	0x3dc505e3	0.096202634
50	0x3d2d2e99	0.042280767
51	0x3da90d2a	0.08254464
52	0x3dd86703	0.10566523
53	0x3d997563	0.07493093
54	0xbc02e965	-0.007990216
55	0xbdf6f26b	-0.12057956
56	0x3da7deed	0.081968166
57	0x3d4069a0	0.04697573
58	0xbdd412b9	-0.103551336
59	0x3ddc40aa	0.10754521
60	0x3ace4382	0.0015736672
61	0xbd7a73bc	-0.06114553
62	0xbd6ea87f	-0.05826616
63	0xbd64adf3	-0.055829953

gcs.0.v_linears.0.weight f4 [64, 64]
0	0xbdc58dea	-0.096462086
1	0x3d5c093d	0.053719748
2	0x3df2aa14	0.11848846
3	0x3d6ddaf0	0.058070123
4	0x3da0146c	0.07816395
5	0x3dddae1c	0.10824224
6	0xbdf5f87c	-0.12010285
7	0x3dead11f	0.11465668
8	0x3ca1a398	0.019731328
9	0x3d1f41e6	0.038881205
10	0x3da7b48c	0.081887335
11	0xbdd80bbd	-0.10549114
12	0xbd362f6d	-0.044478822
13	0x3d1b8c39	0.037975524
14	0xbd13d678	-0.036093205
15	0xbc4491f2	-0.011997687
16	0x3db2257d	0.086985566
17	0xbcd3f388	-0.02587296
18	0x3cd31e3b	0.025771251
19	0xbd7bad12	-0.06144435
20	0xbc2efc8a	-0.010680327
21	0xbc20be4a	-0.009810993
22	0xbd01dd51	-0.031705204
23	0x3d1a1530	0.037617862
24	0xbc8331c7	-0.016014947
25	0x3c33b790	0.010969058
26	0x3d75f6b4	0.060049728
27	0xbd5fbfe2	-0.054626353
28	0xbbecb610	-0.007223852
29	0x3c130c1c	0.008975055
30	0xbdf2b644	-0.11851171
31	0x3d9cc494	0.07654682
32	0xbdc968de	-0.09834455
33	0x3da80c09	0.082054205
34	0xbca6bf66	-0.020354938
35	0xbd53ff5f	-0.051757213
36	0xbd52d5a7	-0.051473286
37	0xbd834c0a	-0.06410988
38	0x3c98fb76	0.018674593
39	0xbd070498	-0.032963365
40	0x3d5cae73	0.053877305
41	0x3df1ceb1	0.118070014
42	0x3dc63c29	0.096794434
43	0xbd99e378	-0.07514089
44	0x3dc7ab72	0.097494975
45	0xbdebb2d4	-0.11508718
46	0x3dee74f5	0.116434015
47	0xbce929f4	-0.028462388
48	0x3da7b9ba	0.081897214
49	0x3d447728	0.0479652
50	0x3da52620	0.080639124
51	0x3d900622	0.0703242
52	0x3db19b68	0.086722195
53	0x3d138626	0.036016606
54	0xbd1dd76e	-0.038535528
55	0x3d5b607a	0.053558804
56	0x3da7e564	0.0819805
57	0x3dcf08f2	0.10109128
58	0xbd13bec4	-0.0360706
59	0xbc4ca95b	-0.012491549
60	0x3c047681	0.008084894
61	0xbd033185	-0.032029647
62	0xbde87bff	-0.113517754
63	0x3de014b5	0.109414496
64	0x3d97e0f6	0.07415955
65	0xbce90902	-0.028446678
66	0xbdb7fe3d	-0.08984039
67	0x3dd5bca2	0.104363695
68	0x3dda252d	0.10651622
69	0xbdab5168	-0.083651364
70	0x3d1e0877	0.03858229
71	0x3c74d0ce	0.014942361
72	0x3ca0e2fd	0.019639486
73	0x3db6d390	0.08927071
74	0x3df9da74	0.1219987
75	0xbc0d14e3	-0.008610937
76	0x3c95ac07	0.018270506
77	0x3dea4423	0.11438777
78	0x3c228d53	0.00992139
79	0x3bbbb9b0	0.005728923
80	0xbda6c022	-0.08142115
81	0xbd9621df	-0.07330679
82	0xbd9360fe	-0.07196234
83	0xbda00fcc	-0.07815513
84	0xbd097f40	-0.03356862
85	0x3beea3c5	0.0072827064
86	0xbd12f1a3	-0.035874974
87	0x39876238	0.00025822385
88	0x3dce6e8a	0.100796774
89	0x3de6628c	0.11249265
90	0xbdcf4ff4	-0.10122672
91	0x3d09a13f	0.033601042
92	0xbdd1ce7d	-0.10244463
93	0x3d2b418b	0.041810554
94	0x3d0a25a7	0.033727314
95	0x3c9dd21c	0.019265227
96	0x3d589143	0.052872907
97	0x3db97dba	0.090571836
98	0xbdebac60	-0.11507487
99	0x3d9ec385	0.07752136
100	0x3de16725	0.110060014
101	0x3dd9ea8a	0.10640438
102	0x3ddc3c83	0.10753729
103	0xbdb183ad	-0.08667693
104	0x3d893ac9	0.067006655
105	0x3da95202	0.08267595
106	0xbd489737	-0.048972335
107	0x3ddd54b9	0.10807175
108	0x3cddd2ce	0.027078059
109	0x3d22742a	0.039661564
110	0x3d9b15af	0.07572495
111	0xbc7f776e	-0.015592439
112	0x3ce17174	0.027519919
113	0xbdedd6d6	-0.11613242
114	0xbddbd5dd	-0.107341506
115	0xbdbc1b47	-0.0918489
116	0x3dceffeb	0.10107406
117	0x3d730c8a	0.05933813
118	0x3a9ec5e4	0.0012113419
119	0x3d324474	0.043522313
120	0xbcc4276e	-0.023944583
121	0xbd3f5c2e	-0.04671877
122	0xbdf64427	-0.12024718
123	0x3d2ad9db	0.04171167
124	0x3d88b15d	0.06674454
125	0xbda569ff	-0.08076858
126	0xbd30c89c	-0.043160066
127	0xbd9b6cad	-0.07589088
128	0x3defd7d1	0.117110856
129	0x3d61a178	0.05508563
130	0xbdb50f82	-0.088408485
131	0x3dec680f	0.11543285
132	0xbdf0050d	-0.11719713
133	0xbd40c1ca	-0.04705981
134	0xbd2d0dd2	-0.04224951
135	0xbc39b846	-0.011335438
136	0x3c89a18c	0.016800664
137	0x3cabc149	0.020966189
138	0xbc03258a	-0.0080045555
139	0xbd80a9d5	-0.06282393
140	0x3dfcb033	0.12338295
141	0xbd16b0a2	-0.036789544
142	0x3aab378c	0.0013062819
143	0xbd29b670	-0.04143375
144	0x3db54820	0.088516474
145	0xbda91faf	-0.08257996
146	0xbd17cc08	-0.037059814
147	0xbd5f3fd7	-0.05450424
148	0xbbf7b8d7	-0.0075598764
149	0x3d32db3c	0.04366611
150	0x3d5490b6	0.05189582
151	0x3c45dbce	0.012076331
152	0x3da954c0	0.08268118
153	0xbda0b4fd	-0.07847021
154	0xbdfbcf87	-0.12295442
155	0x3d3fd83f	0.046837088
156	0x3b3b5f48	0.0028590728
157	0xbd71c484	-0.059025303
158	0xbb98eda1	-0.0046669994
159	0xbd4e53ec	-0.050373003
160	0x3d5b1b70	0.053492963
161	0x3c62048b	0.013795028
162	0x3d5fc63f	0.05463242
163	0xbd1927d2	-0.03739149
164	0xbd8d3891	-0.06895555
165	0x3c949637	0.018138034
166	0xbdf5e5b0	-0.120067
167	0x3dd541f5	0.10412971
168	0x3dc31db1	0.095271476
169	0xbd18852d	-0.03723638
170	0x3d2ead97	0.042646017
171	0xbc94fd90	-0.018187314
172	0x3da84065	0.08215407
173	0x3d23ac03	0.039958965
174	0x3d8cdca1	0.06878019
175	0x3d8b25b0	0.06794298
176	0xbb389984	-0.0028167674
177	0xbd8c59b5	-0.06853048
178	0xbbc01911	-0.005862363
179	0xbd5abee9	-0.053404722
180	0xbdfacb99	-0.122458644
181	0xbd2c9cd6	-0.042141758
182	0x3dde06aa	0.10841115
183	0x3ccd4ccd	0.025061036
184	0x3cb43add	0.022000724
185	0x3d9aec4b	0.075646006
186	0xbd865854	-0.06559816
187	0xbda24221	-0.07922769
188	0x3cc994c5	0.024607072
189	0x3df9ebd8	0.12203187
190	0xbd437bc5	-0.047725458
191	0xbc83b7d6	-0.01607887
192	0x3ddc3676	0.10752575
193	0xbddb0cec	-0.10695824
194	0xbd46f32b	-0.048571747
195	0x3d77f959	0.06054053
196	0x3dee83bf	0.11646222
197	0x3cfc6add	0.030812675
198	0xbdfe2ed6	-0.12411277
199	0xbd55f77c	-0.052237973
200	0x3dc185ee	0.09449373
201	0x3d34e15c	0.044160232
202	0x3c81739e	0.0158022
203	0x3d12ab07	0.035807636
204	0xbca8c0b6	-0.020599704
205	0xbde03b41	-0.10948802
206	0x3dedf3de	0.116187796
207	0x3da53b67	0.08067971
208	0x3d5a00ca	0.05322341
209	0x3d98adfa	0.074550584
210	0x3d765f04	0.060149208
211	0x3d387808	0.045036346
212	0xbdec95fe	-0.11552046
213	0x3dda5123	0.10660007
214	0xbda54c02	-0.08071138
215	0x3d947519	0.07248897
216	0x3dc54c58	0.09633702
217	0x3d7f7a10	0.062372267
218	0x3d3c1cfb	0.045926075
219	0x3a735fa2	0.0009283965
220	0x3c83c19b	0.01608353
221	0xbc921fb1	-0.017837377
222	0xbc52c0b5	-0.012863328
223	0xbd45fd13	-0.048337054
224	0xbb272956	-0.0025506816
225	0xbdcd089f	-0.1001141
226	0x3c2185f2	0.009858595
227	0x3cf5a059	0.029983686
228	0x3abb0a6a	0.0014270071
229	0xbd8cd50c	-0.06876573
230	0xbdd206f0	-0.102552295
231	0x3d9280ee	0.07153498
232	0xbd8dcade	-0.069234595
233	0x3d66b091	0.05632073
234	0x3d825fe1	0.06365944
235	0xbcebeb59	-0.028798746
236	0x3d9b7a73	0.07591715
237	0xbc83de0e	-0.016097095
238	0xbded84ca	-0.11597593
239	0xbdf95fcb	-0.12176474
240	0xbd27c89c	-0.0409628
241	0xbdae13fb	-0.08499905
242	0x3c2827f9	0.0102634365
243	0xbd3f352e	-0.046681575
244	0x3cf26496	0.029588979
245	0xb80f8a29	-3.422253e-05
246	0x3dfcf6c2	0.12351753
247	0x3ca2a28f	0.019852905
248	0xbd8db835	-0.069199
249	0xbda44cb9	-0.08022446
250	0xbddf3051	-0.108978875
251	0xbd9f181b	-0.0776827
252	0x3d7b16fc	0.061301216
253	0xbce1f792	-0.027583871
254	0xbd647be5	-0.055782218
255	0xbcc8ce54	-0.024512447

gcs.0.v_linears.0.bias f4 [64]
0	0xbd97cfb1	-0.07412661
1	0xbd699464	-0.057026282
2	0x3da8e713	0.08247199
3	0x3d1e56fc	0.038657174
4	0xbb01e406	-0.001981975
5	0x3cfca483	0.030840164
6	0x3d744f66	0.059646033
7	0x3dae5571	0.085123904
8	0x3cebcf4f	0.028785376
9	0x3dd11e6e	0.10210882
10	0xbdcbb46a	-0.099465206
11	0x3df459b8	0.11931175
12	0x3b910c06	0.004426482
13	0x3da03cad	0.07824073
14	0x3dadf50b	0.08494004
15	0x3d216db3	0.039411258
16	0xbde4724b	-0.11154612
17	0xbdeef09d	-0.11666987
18	0x3ce807b6	0.02832399
19	0x3bc15360	0.0058998317
20	0x3d8a96e5	0.06767062
21	0xbc2f9568	-0.010716774
22	0xbd56adc1	-0.0524118
23	0xbdcd19f7	-0.10014718
24	0xbda2314d	-0.0791956
25	0xbdf3fe4d	-0.119137384
26	0x3be6f40f	0.007048137
27	0x3d3a172e	0.045432262
28	0x3dea977a	0.11454673
29	0xbdb6951b	-0.08915158
30	0xbd09f54d	-0.033681203
31	0x3dea3859	0.11436529
32	0x3dfa2cd5	0.12215582
33	0x3d249d76	0.04018923
34	0xbdaad7c8	-0.08341938
35	0xbd8074ec	-0.06272301
36	0xbd4d4d00	-0.05012226
37	0xbcf1913e	-0.029488202
38	0x3dddde39	0.10833401
39	0xbca09953	-0.01960436
40	0x3d4599bf	0.048242327
41	0xbdf99c0e	-0.12187968
42	0x3afa1ded	0.0019082405
43	0xbdd870c9	-0.10568387
44	0x3c7b2878	0.015329473
45	0xbdc70565	-0.09717826
46	0xbd60d900	-0.054894447
47	0x3d002b85	0.031291503
48	0x3a3f116c	0.0007288668
49	0x3d194816	0.037422262
50	0xbd632b5a	-0.055461265
51	0xbd54287b	-0.051796418
52	0xbdeee4e9	-0.11664755
53	0xbda7b7a9	-0.08189327
54	0x3d44533f	0.047930952
55	0x3d15e1d6	0.036592327
56	0xbd73d88a	-0.05953268
57	0x3df1f5e4	0.11814478
58	0x3dfbde29	0.12298233
59	0xbdfe54ca	-0.12418516
60	0x3d838551	0.064219125
61	0x3d6f09d4	0.058358982
62	0xbdc30106	-0.095216796
63	0xbdbbeada	-0.09175654

gcs.0.a_linears.0.weight f4 [64, 64]
0	0x3dc46171	0.09588898
1	0x3debec05	0.115196265
2	0xbdcc6ab8	-0.099812925
3	0x3d944fb0	0.07241762
4	0x3d80354b	0.06260165
5	0x3d7b48f2	0.061348863
6	0xbc1be026	-0.00951389
7	0xbcd15904	-0.025555141
8	0x3dfb0566	0.12256889
9	0x3d9aedb3	0.07564869
10	0xbd7b1a68	-0.06130448
11	0x3cb14a65	0.02164192
12	0x3d5bcd1c	0.053662404
13	0x3db6f3db	0.089332305
14	0x3d938a86	0.072041556
15	0x3de6bd6a	0.112665966
16	0xbd2fddb0	-0.042936027
17	0x3d537ac2	0.051630743
18	0xbcf9629d	-0.03044253
19	0x3ca25d02	0.01981974
20	0x3d83a3b3	0.064277075
21	0xbc9207bd	-0.017825956
22	0x3db58ff9	0.08865351
23	0x3d0df83d	0.034660567
24	0xbd718a62	-0.058969863
25	0xbd513b63	-0.051082026
26	0xbd594666	-0.053045653
27	0x3b9b946e	0.004747919
28	0x3d89174f	0.06693899
29	0x3d1ceac2	0.03830982
30	0xbdef3ccb	-0.11681517
31	0xbdd752f9	-0.10513873
32	0xbcb47655	-0.022029081
33	0xbd7da000	-0.061920166
34	0xbcd11304	-0.025521763
35	0x3d37314e	0.044724755
36	0xba4e5933	-0.0007871568
37	0xbcb9b4eb	-0.022669276
38	0x3dd48f11	0.1037885
39	0x3d0b5c1d	0.034023393
40	0x3d945094	0.072419316
41	0xbde8dcb2	-0.11370219
42	0xbd9a7c04	-0.07543185
43	0x3d912c23	0.070884965
44	0x3d99eaf9	0.075155206
45	0x3ddae4be	0.1068816
46	0x3b967d0e	0.0045925444
47	0xbc766cd9	-0.0150406
48	0xbd2d22ac	-0.042269394
49	0xbd37090a	-0.044686355
50	0xbdc3e4c2	-0.095651165
51	0x3b8b03bb	0.004242388
52	0x3c929ed5	0.017898003
53	0x3d64ee9b	0.055891614
54	0xbdae70d5	-0.08517615
55	0x3d84eb56	0.06490199
56	0x3d80c7f6	0.062881395
57	0xbd82bcab	-0.06383642
58	0xbdac764e	-0.08421002
59	0x3c8fddbe	0.01756179
60	0x3ce2455a	0.02762096
61	0x3d5d2228	0.053987652
62	0x3dc078e3	0.09398057
63	0xbdef9aa4	-0.11699417
64	0x3cb97398	0.022638127
65	0x3c8b8135	0.017029384
66	0xbde8b1f8	-0.1136207
67	0xbd9eae23	-0.07748058
68	0x3c1beb7b	0.009516592
69	0xbdeada3c	-0.11467406
70	0x3def30d5	0.11679236
71	0xbdc8da30	-0.09807241
72	0x3c777c8a	0.015105376
73	0x3dd094b8	0.10184616
74	0x3d5f92d4	0.054583386
75	0x3c75b665	0.0149970995
76	0xbdee3fed	-0.116332866
77	0x3dd1fc95	0.10253254
78	0x3d713c50	0.05889541
79	0x3dbc50f5	0.09195129
80	0xbd673031	-0.056442443
81	0xbc9833ad	-0.018579328
82	0xbc8d9a54	-0.017285503
83	0xbd49cc09	-0.04926685
84	0x3dc6a3b4	0.09699193
85	0x3d6bf09b	0.057602506
86	0xbbd6a429	-0.006550331
87	0x3d2a70ea	0.04161159
88	0x3d44566b	0.047933977
89	0x3def2235	0.11676446
90	0x3d6dfa2c	0.05809991
91	0xbda4c539	-0.0804543
92	0xbc46e184	-0.012138728
93	0x3d2c9746	0.042136453
94	0xbcc4b6d1	-0.024012955
95	0x3c5e5049	0.013568946
96	0xbcf353c0	-0.029703021
97	0x3dbf3b8c	0.093375295
98	0x3cd29b6d	0.025708878
99	0xbd1a88c8	-0.0377281
100	0xbc9b7992	-0.018978868
101	0x3dd8421e	0.10559486
102	0x3bcc9058	0.006242793
103	0x3d89a1c1	0.06720305
104	0xbd5541d0	-0.052064717
105	0x3d979caa	0.07402928
106	0xbda2e9b7	-0.07954734
107	0xbd043cdf	-0.032284614
108	0xbd214766	-0.03937473
109	0x3d99aab7	0.075032644
110	0x3d9418d6	0.072312996
111	0xbddc83f9	-0.10767359
112	0x3b90e418	0.004421722
113	0x3d033586	0.032033466
114	0x3d8f030d	0.06983004
115	0x3c93d2de	0.018044885
116	0x3dd7f1bd	0.10544155
117	0xbbc6822f	-0.0060579996
118	0xbdb30528	-0.08741218
119	0x3dcf2c12	0.101158276
120	0xbdfd11ea	-0.123569325
121	0x3dcd572b	0.100263916
122	0xbdfeae3a	-0.12435575
123	0x3d8566fd	0.06513784
124	0xbb025038	-0.001988424
125	0x3db4ddfe	0.08831404
126	0x3d02ba75	0.0319161
127	0xbd96acbe	-0.07357167
128	0x3da847f2	0.082168475
129	0xbd9b8172	-0.07593049
130	0xbd63ecce	-0.055645756
131	0x3d15d916	0.036583982
132	0x3d390b76	0.045176946
133	0x3dde1299	0.10843391
134	0xbdbfec10	-0.09371197
135	0xbdf4e227	-0.11957198
136	0x3d97f397	0.07419508
137	0xbd70dc92	-0.058804102
138	0x3ce771ef	0.02825257
139	0x3dc97b88	0.09838015
140	0xbc9a0df3	-0.01880548
141	0x3dd96bb2	0.106162444
142	0x3ddcb1d6	0.10776107
143	0xbcb04305	-0.021516332
144	0x3da36bce	0.079795465
145	0xbc1cbcae	-0.009566469
146	0xbd520e2e	-0.051283054
147	0x3d9bde80	0.07610798
148	0x3daf03f9	0.085456796
149	0xbc90f29e	-0.017693814
150	0x3d9c1282	0.076207176
151	0x3c0cbc31	0.00858979
152	0x3b2aff2b	0.0026092033
153	0x3d47e7b1	0.048804943
154	0x3daf132d	0.08548579
155	0xbd9f6543	-0.07782986
156	0x3dfdad24	0.123865396
157	0x3cb11403	0.021615988
158	0x3c32b43a	0.010907227
159	0xbdbf278d	-0.093337156
160	0xbd071d7e	-0.03298711
161	0xbd47d519	-0.04878721
162	0xbde1b86c	-0.11021504
163	0xbd19e94e	-0.037576012
164	0xbdd19c06	-0.10234837
165	0x3df4b221	0.11948038
166	0xbd83ce12	-0.06435789
167	0xbd96ba1d	-0.07359717
168	0xbd5ad4fc	-0.053425774
169	0x3c810a01	0.01575184
170	0xbc150892	-0.009096282
171	0x3d8aca3e	0.06776856
172	0x3de5a06b	0.11212238
173	0x3de09d0a	0.10967453
174	0xbd3a811e	-0.045533292
175	0xbc863630	-0.01638326
176	0xbcf5789d	-0.02996474
177	0x3ccf0c3d	0.02527439
178	0x3d955892	0.07292284
179	0xbdb22de8	-0.08700162
180	0xbd6e9ef8	-0.058257073
181	0xbcc56e11	-0.024100335
182	0x3de3bbff	0.11119842
183	0xbc738087	-0.014862186
184	0x3dd60533	0.104502104
185	0xbdafaded	-0.085780956
186	0xbdb8ed75	-0.09029666
187	0xbd64e3b6	-0.055881225
188	0x3c84b318	0.01619868
189	0xbd8c5a4e	-0.06853162
190	0xbca86e88	-0.020560518
191	0xbdb8483f	-0.08998155
192	0x3dc460bc	0.09588763
193	0x3d704a17	0.058664408
194	0x3df8c97a	0.121478036
195	0x3bd484dd	0.006485565
196	0xbd190beb	-0.03736488
197	0xbd3f5522	-0.04671205
198	0x3d99c5fe	0.07508467
199	0xbd05c45d	-0.03265797
200	0xbd07d2c3	-0.033159982
201	0x3dd7043e	0.10498856
202	0xbcbf22e2	-0.023332063
203	0xbdb4ff1b	-0.0883772
204	0xbda931cd	-0.08261452
205	0xbd3372d6	-0.043810688
206	0xbbe7f71f	-0.0070790197
207	0x3c41ddb3	0.011832642
208	0x3c6082dd	0.013703075
209	0xbd6bd5cb	-0.057576936
210	0x3dbc8242	0.09204532
211	0x3d53ad42	0.051678903
212	0x3da80bd3	0.0820538
213	0x3caa42f4	0.020783879
214	0x3d545cf6	0.051846467
215	0x3dacf042	0.08444263
216	0xbdc2f916	-0.095201656
217	0xbd8c6522	-0.06855227
218	0x3de0fb1d	0.10985396
219	0xbda8dbd4	-0.08245054
220	0x3db88643	0.090099834
221	0xbd413e9e	-0.047178857
222	0xbd9ed522	-0.077554956
223	0xbda3c96a	-0.07997401
224	0xbcf3103e	-0.02967083
225	0x3d6ca1d7	0.05777153
226	0xbb2f0e35	-0.002671135
227	0xbdd9acc6	-0.10628657
228	0xbd859838	-0.06523174
229	0xbddb87a5	-0.107192315
230	0x3dd8fd2e	0.10595165
231	0x3d264473	0.040592622
232	0x3d82e707	0.06391721
233	0xbddfce21	-0.10927988
234	0x3d9ad577	0.075602464
235	0x3de2ad40	0.11068201
236	0x3d58d51e	0.05293762
237	0x3dfe3a66	0.12413482
238	0xbd67a26f	-0.056551393
239	0xbd24ccb6	-0.04023429
240	0xbd24f706	-0.040274642
241	0x3df634ae	0.120217666
242	0xbd36df3b	-0.044646483
243	0xbdcf6523	-0.10126712
244	0xbde192e8	-0.11014348
245	0xbd753119	-0.059861276
246	0x3de13934	0.10997239
247	0xbd9e703d	-0.077362515
248	0x3db1bade	0.0867822
249	0x3dec5bee	0.11540972
250	0x3cec2836	0.028827768
251	0xbdbc1256	-0.09183185
252	0xbda3f302	-0.080053344
253	0xbce9f694	-0.02855996
254	0xbdaec480	-0.08533573
255	0xbd918951	-0.07106269

gcs.0.a_linears.0.bias f4 [64]
0	0xbda6bbba	-0.08141275
1	0x3d58a9fe	0.052896492
2	0xbc963a64	-0.01833839
3	0x3cc8d630	0.024516195
4	0xbd0c2d4a	-0.03422288
5	0xbd0ae5e5	-0.03391065
6	0xbd4b3389	-0.049609695
7	0x3d448f62	0.047988303
8	0x3dd63a33	0.10460319
9	0xbdac9f1e	-0.08428787
10	0x3ce61a31	0.02808866
11	0xbd42d627	-0.047567513
12	0xbdd843c6	-0.10559802
13	0x3cc65eb1	0.024215074
14	0xbc4ecdbf	-0.012622296
15	0xbdcb8710	-0.099378705
16	0xbd7a8d60	-0.061169982
17	0x3c4e9195	0.012607952
18	0x3d722bb2	0.059123702
19	0xbde88108	-0.11352736
20	0x3db5f374	0.088843256
21	0xbc48bb16	-0.012251636
22	0x3ddeb4e0	0.10874343
23	0xba987284	-0.0011630808
24	0xbde2d63d	-0.11076019
25	0x3d5639e6	0.05230131
26	0xbdc1f69a	-0.09470864
27	0xbe0010cb	-0.12506406
28	0xbc2397f0	-0.009984955
29	0x3cb146c5	0.02164019
30	0x3d00dc21	0.03145993
31	0xbdd6b90b	-0.10484513
32	0xbdba54b4	-0.09098187
33	0x3d9d4f1a	0.07681103
34	0xbd9d2ae2	-0.07674195
35	0x3daf5bd7	0.08562439
36	0x3daca82c	0.08430514
37	0xbdf90180	-0.12158489
38	0x3df662b8	0.12030548
39	0x3de8127a	0.11331649
40	0xbc932d66	-0.017965984
41	0xbd3786c6	-0.044806264
42	0xbd0047f9	-0.03131864
43	0x3d8df3b2	0.06931247
44	0xbc5cce8b	-0.013476978
45	0xbdc050e2	-0.09390427
46	0x3cbc535c	0.022988968
47	0xbd03f428	-0.032215267
48	0xbd753cbd	-0.059872378
49	0x3dd15346	0.10220961
50	0x3da231d9	0.07919664
51	0xbdb2395f	-0.08702349
52	0xbcc681bf	-0.02423179
53	0x3ba1ce8a	0.0049379515
54	0x3ccfe41d	0.025377328
55	0xbdb8c0b3	-0.090211295
56	0xbc5206c4	-0.012818996
57	0x3d84ef9a	0.06491013
58	0xbdb1ab38	-0.086752355
59	0x3d7f2b50	0.062297165
60	0xbc84ffc2	-0.016235236
61	0xbc8fa0ae	-0.017532673
62	0xbd80aa57	-0.0628249
63	0xbd955d0a	-0.072931364

gcs.0.norms.0.weight f4 [64]
0	0x3f800cfa	1.000396
1	0x3f800cfa	1.000396
2	0x3f7fe586	0.999596
3	0x3f800cfa	1.000396
4	0x3f800cfa	1.000396
5	0x3f7fe586	0.999596
6	0x3f800cfa	1.000396
7	0x3f7fe586	0.999596
8	0x3f800cfa	1.000396
9	0x3f800cfa	1.000396
10	0x3f800cfa	1.000396
11	0x3f7fe586	0.999596
12	0x3f7fe586	0.999596
13	0x3f800cfa	1.000396
14	0x3f7fe586	0.999596
15	0x3f800cfa	1.000396
16	0x3f7fe586	0.999596
17	0x3f800cfa	1.000396
18	0x3f7fe586	0.999596
19	0x3f800cfa	1.000396
20	0x3f800cfa	1.000396
21	0x3f7fe586	0.999596
22	0x3f7fe586	0.999596
23	0x3f800cfa	1.000396
24	0x3f7fe586	0.999596
25	0x3f7fe586	0.999596
26	0x3f7fe586	0.999596
27	0x3f800cfa	1.000396
28	0x3f7fe586	0.999596
29	0x3f7fe586	0.999596
30	0x3f800cfa	1.000396
31	0x3f7fe586	0.999596
32	0x3f7fe586	0.999596
33	0x3f800cfa	1.000396
34	0x3f800cfa	1.000396
35	0x3f7fe586	0.999596
36	0x3f7fe586	0.999596
37	0x3f800cfa	1.000396
38	0x3f7fe586	0.999596
39	0x3f800cfa	1.000396
40	0x3f800cfa	1.000396
41	0x3f7fe586	0.999596
42	0x3f800cfa	1.000396
43	0x3f7fe586	0.999596
44	0x3f800cfa	1.000396
45	0x3f7fe586	0.999596
46	0x3f800cfa	1.000396
47	0x3f800cfa	1.000396
48	0x3f7fe586	0.999596
49	0x3f7fe586	0.999596
50	0x3f800cfa	1.000396
51	0x3f800cfa	1.000396
52	0x3f7fe586	0.999596
53	0x3f800cfa	1.000396
54	0x3f7fe586	0.999596
55	0x3f800cfa	1.000396
56	0x3f800cfa	1.000396
57	0x3f800cfa	1.000396
58	0x3f7fe586	0.999596
59	0x3f800cfa	1.000396
60	0x3f800cfa	1.000396
61	0x3f7fe586	0.999596
62	0x3f7fe586	0.999596
63	0x3f800cfa	1.000396
